policy_scripts/Checkpoint/DQN_beta_new_model.pth (torch, 92413 bytes, 8 tensors)

Input.weight f4 [128, 12]
000000 0a e2 9f 3d 1e bb 00 be e0 0a f9 3d 97 03 82 3e
       0.078067854 -0.1257138 0.12160277 0.25393364
000010 9d e6 ac bd 98 2a 03 3e 0e 71 8c 3e 7f 19 84 3d
       -0.084424235 0.12809217 0.27430004 0.064501755
000020 33 79 17 3e 12 15 46 bd e5 8d 4c 3e 8b 3d 00 3e
       0.14792328 -0.048359938 0.19976003 0.12523477
000030 57 ab 7f be aa ce 24 bd c8 a4 4f 3d fe b9 37 be
       -0.24967705 -0.040236153 0.050694257 -0.17942044
000040 ee 7a 24 3e f0 d9 8e 3e 6f 5d 3e 3e d5 89 87 be
       0.16062519 0.27900648 0.1859033 -0.26472345
000050 94 c3 17 be 21 1a d1 3d a3 40 31 3e ec 91 69 be
       -0.14820701 0.10210062 0.17309813 -0.22809571
000060 6e 6b a3 bd ad 66 92 be fb ba a7 3c f6 92 2c be
       -0.07979475 -0.2859396 0.020474901 -0.16852936
000070 5b 24 ff bd ca 61 2f be d7 4d eb bd 5b 98 ec 3d
       -0.12458106 -0.17127147 -0.11489456 0.11552497
000080 bf f5 83 be a8 14 8e be ba 20 61 3e c8 17 ff 3d
       -0.25773427 -0.27750134 0.2198514 0.12455708
000090 89 53 48 3e 22 b9 cb bc 7a fc 50 3e 31 a4 d5 3d
       0.19563116 -0.024868552 0.20408812 0.10431708
0000a0 da 3d b7 3c aa 17 25 be 1a ad b7 3d 12 bd 6c 3e
       0.02236836 -0.16122308 0.089685634 0.23119
0000b0 7a 22 c8 bd 28 a7 a8 bd 06 8d 9e bd 48 66 73 3e
       -0.09772201 -0.082350075 -0.07741742 0.23769486
0000c0 e2 26 7d 3e 6c 22 3c be ca 9e 90 be ff af 82 3e
       0.24721864 -0.18372506 -0.28246146 0.255249
0000d0 5a c9 4c 3e 1f a9 7e be f5 bf 21 bd 20 05 4d be
       0.19998685 -0.24869202 -0.039489705 -0.20021486
0000e0 dc 2f 10 3e 17 e1 5c be 48 64 37 3e 65 91 64 be
       0.14080757 -0.2157024 0.17909348 -0.22321089
0000f0 1a a9 8a 3e ed dc 09 3e d1 1a 1f be 5b 30 32 be
       0.2708214 0.13463183 -0.15537573 -0.17401259
000100 26 c4 c0 bc 51 c6 53 be 55 0c 27 3e 8d eb 8c be
       -0.02353103 -0.2068112 0.16313298 -0.2752346
000110 39 4a 94 bb a3 9a 85 be 12 f1 6d 3e 3d e3 37 3e
       -0.0045254496 -0.2609454 0.23236492 0.17957778
000120 64 fd 79 3e cd 79 ac 3c e2 17 80 be 80 13 77 3e
       0.24413067 0.021054173 -0.2501822 0.24128532
000130 39 c3 d2 3d ba 01 92 3c 9a 72 c7 3d 53 fd 5b 3e
       0.10291142 0.017823089 0.097386554 0.21483354
000140 7c 67 51 be af 4f bd bd 12 3b 1a be 3e c7 43 be
       -0.20449632 -0.09243714 -0.15061596 -0.19118974
000150 f8 18 57 3e 18 f5 6f be 21 68 31 be bb 7e 50 3d
       0.21005619 -0.2343334 -0.17324878 0.05090211
000160 33 8f 70 3e cc 7a 82 bd f2 32 44 be a6 f1 8b 3d
       0.23492126 -0.06371078 -0.19160059 0.068332
000170 9e 93 75 be 2d b3 54 be 25 10 80 3e eb 7e 3e 3e
       -0.23982093 -0.20771475 0.25012317 0.18603103
000180 47 ce 91 3e 54 0a 79 3e 07 f1 64 3d 8d 90 c8 bd
       0.2847769 0.24320346 0.055893924 -0.09793196
000190 e0 e0 6d 3e 13 c0 7a bd cf df aa 3b 2d 09 86 3e
       0.23230314 -0.061218332 0.0052146683 0.26178876
0001a0 eb 14 09 be b3 2d e4 bb b5 64 94 3d 49 26 3c 3e
       -0.13386886 -0.0069634556 0.07245771 0.1837398
0001b0 ca 80 02 be 8e 33 0c bb 62 b2 2e be c3 0f da bd
       -0.12744442 -0.0021393034 -0.17060235 -0.106475376
0001c0 10 bf c2 3d ed 32 8e be 93 3d 93 3e 91 95 1f be
       0.095090985 -0.27773228 0.28757915 -0.15584399
0001d0 84 40 95 3d 55 a8 6f be 84 ea 81 3d 2f ba 87 be
       0.07287696 -0.23404057 0.063435584 -0.26509234
0001e0 03 38 8d bc 24 c9 6c be 8b f0 d3 3d 8f 36 fb bd
       -0.017238623 -0.23123604 0.10348614 -0.122662656
0001f0 ce 77 1e bd 60 73 c5 bd 18 1c 0e be 8f d0 7d be
       -0.038688473 -0.09641147 -0.13877904 -0.2478659
000200 2e f1 3e bd 0d 29 b6 bd 3c 03 8e be 31 59 bf bd
       -0.046616726 -0.088945486 -0.27736843 -0.09343184
000210 03 49 82 be 02 46 78 be 7e 91 58 be 50 6e 03 be
       -0.2544633 -0.24245456 -0.21149251 -0.1283505
000220 d1 01 4e 3e f5 80 27 3e 1b e9 e2 3d 14 92 49 3e
       0.2011788 0.16357787 0.110796176 0.1968463
000230 d6 0d ac 3d e0 58 15 3e 0c 42 2a 3c 04 98 0e be
       0.084010765 0.14584684 0.010391723 -0.13925177
000240 97 06 d3 bc 72 32 4b 3e cb 23 13 be b9 ce a9 bb
       -0.025759978 0.19843462 -0.14369123 -0.005182114
000250 b1 5f 04 3e 78 62 36 be 88 c2 8b be cc 2a fe 3d
       0.12927128 -0.17811 -0.27296853 0.124105066
000260 f3 b2 49 3e 07 7d c1 3d 78 a0 3e 3e 13 37 a7 bd
       0.1969717 0.09447675 0.18615901 -0.081648014
000270 b4 2a c5 bd 9d 72 3f bd f7 24 1e 3e 40 b0 52 3e
       -0.096272856 -0.046740163 0.15443788 0.20575047
000280 21 7f 92 be ec 0c 02 be c2 0b 04 3e fd 6f 32 3e
       -0.28612617 -0.12700242 0.1289511 0.17425533
000290 88 fa f7 3d ab 04 0f bd 52 ff 29 be 59 12 fb bd
       0.12108332 -0.03491656 -0.16601303 -0.12259359
0002a0 04 19 3f bd ed e6 cd 3c 8b 40 7a 3e 6c a1 49 3c
       -0.046654716 0.025134528 0.24438684 0.012306552
0002b0 0c 0a 6b be 2d 5d 5f be 9f 8c 18 be 4b 42 d1 3d
       -0.22953051 -0.21812887 -0.14897393 0.102177225
0002c0 f7 a9 83 be f5 91 4f 3e 8c fb 5d be d6 35 93 3d
       -0.2571561 0.20270522 -0.21677989 0.07188003
0002d0 b2 58 16 bd 7d de 1b 3e d7 81 be 3d 0f 00 91 3e
       -0.03670568 0.15221591 0.09302109 0.28320357
0002e0 48 11 c5 bd e2 28 ca bc 60 e4 e0 bd ca 13 2a bd
       -0.09622437 -0.024677698 -0.10981059 -0.04152278
0002f0 2e 63 7d 3c 7f d7 0c 3e 6a 41 41 be 56 5b 8b 3e
       0.015465541 0.1375408 -0.1887261 0.2721812
000300 3e 8c c9 3d d9 1e ac 3d ba 12 2d 3d 92 02 09 3d
       0.09841202 0.08404321 0.042254187 0.033449717
000310 e7 3e 70 3e e2 2e 23 3e 11 20 e9 bd 4c 5c f3 bd
       0.23461495 0.15935853 -0.11383069 -0.118828386
000320 18 8b 79 3e 56 07 f3 bc d3 de 4c 3d 82 09 93 be
       0.24369466 -0.029666584 0.05001719 -0.2871819
000330 bb 61 92 bd a1 b1 1d bc a5 72 89 be e3 4d 57 be
       -0.07147547 -0.00962487 -0.2684528 -0.21025805
000340 71 c2 ff 3d 56 ab a2 bd b0 94 80 bd 85 72 b8 3c
       0.12488259 -0.07942836 -0.0627836 0.022515545
000350 82 6a 76 be 54 3e 28 ba f4 8b 32 3c 24 f0 2d 3d
       -0.24064067 -0.0006417979 0.010897625 0.042465344
000360 1a a1 4d be 8a f8 8e be c8 c9 79 3e 57 cc 27 3d
       -0.20080987 -0.27923995 0.2439338 0.040966358
000370 83 0a 00 3e 59 8e 69 be 82 d7 8f bd 2a b1 ba bd
       0.1250401 -0.22808208 -0.07023527 -0.091158226
000380 cc d6 9e bd ba 68 83 3e 88 2e b1 bd 0f 39 ef bc
       -0.07755813 0.25665838 -0.08651453 -0.029202012
000390 54 f8 39 3e bb cb 7c be d6 1c 1e bd f7 45 8e 3e
       0.18161136 -0.24687092 -0.03860172 0.27787754
0003a0 6d 18 84 3e a0 a3 81 bd f3 6f 79 3d a3 61 4d 3e
       0.25799885 -0.06330037 0.06089778 0.20056777
0003b0 fa a6 06 3e db 00 23 be 71 37 20 3e 47 23 92 be
       0.13149634 -0.15918295 0.15646149 -0.2854254
0003c0 57 c1 61 bc db 5d e3 3c 43 75 87 3e d7 c2 75 be
       -0.013779006 0.027754715 0.2645665 -0.24000107
0003d0 07 80 00 3e 11 87 7f be 53 c7 44 bd 37 7f 54 3e
       0.12548839 -0.24953867 -0.048041653 0.20751654
0003e0 a7 71 d1 bc 4f df 19 be ec 26 cf bd e1 cf 07 3e
       -0.025566889 -0.15026592 -0.10114846 0.13262893
0003f0 e6 28 dd 3d d4 27 d5 3c 3d 55 d5 bd 10 bc 59 3e
       0.107988164 0.026019968 -0.104166485 0.21263146

Input.bias f4 [128]
000000 e1 93 ed 3c a4 40 6c be b6 64 85 3e 69 6b 36 3e
       0.029001178 -0.23071533 0.260534 0.17814411
000010 72 a8 01 3e 58 a3 8d be cf de 9e 3d 9e fa 32 3e
       0.12661913 -0.27663684 0.07757341 0.17478415
000020 ef d9 83 be 76 eb 0d 3d 3c a0 00 3d 79 a3 73 3e
       -0.25752208 0.03464838 0.03140281 0.23792829
000030 a3 de c6 bd 14 bb 2d be 50 94 b9 3d 9b e7 62 3d
       -0.09710433 -0.16965896 0.090614915 0.055396657
000040 cd 96 ea 3d 3c 8f 48 3e ae bc 02 be bd 91 a6 bd
       0.11454544 0.1958589 -0.12767288 -0.08133266
000050 5e 28 89 be 45 e1 42 bd 6e b0 db bd 59 df 33 3e
       -0.2678861 -0.047578115 -0.10727011 0.17565669
000060 14 e9 a4 bc e4 7b c5 3d f5 04 1c 3e 45 05 57 be
       -0.020130672 0.09642771 0.15236266 -0.20998104
000070 ab 01 8f 3e 5d 14 82 be 52 30 0f be 0c 4c 82 3e
       0.2793096 -0.2540616 -0.13983276 0.25448644
000080 78 f4 f7 bd cb b8 12 3e 7b 79 9b 3d 7a 83 e6 bc
       -0.121071756 0.14328305 0.0759153 -0.028138865
000090 66 3f 0a be 4b 7f 43 3e 19 34 72 bd 30 16 03 3e
       -0.13500747 0.19091527 -0.059131715 0.12801433
0000a0 ba c4 db bd e1 c1 51 3e e4 02 9b 3d bd 24 05 3e
       -0.10730882 0.20484115 0.07568911 0.13002296
0000b0 d3 82 99 3d 2c ca d6 bd f2 74 5d bd 18 ef 70 be
       0.07495656 -0.1048778 -0.054066606 -0.23528707
0000c0 c3 a5 8f be 31 32 62 3e 3d 0e 04 be 3e f7 70 3d
       -0.28056154 0.22089459 -0.12896056 0.05882954
0000d0 df da 4a be 53 02 76 be 29 d9 05 3c d7 c5 81 3e
       -0.19810055 -0.24024324 0.008169451 0.25346252
0000e0 8c 44 51 bd e6 a0 57 3e a2 59 49 3e 15 7c 6d be
       -0.051090762 0.21057472 0.19663098 -0.23191865
0000f0 cb 64 7b 3e 26 b9 80 be 3d 65 8a be 40 26 6f 3e
       0.24550168 -0.25141257 -0.27030364 0.23354435
000100 56 f9 81 be ea 9e e1 bc 3e f4 60 3e 8b c0 ad bd
       -0.2538554 -0.027541596 0.21968171 -0.0848399
000110 e1 76 3b be 51 56 41 3e b8 c9 3b 3e 81 2e 4a 3e
       -0.18307067 0.18880583 0.18338668 0.19744302
000120 67 78 60 be d1 3a 09 3e e6 fd 7d be 13 5f a5 3b
       -0.2192093 0.13401343 -0.24803886 0.005046734
000130 c5 86 0e bd 3d dd ed 3d 6b 24 0a 3e 87 fc 8a 3d
       -0.034796495 0.116144635 0.13490455 0.06786447
000140 fe 0a 79 3e 4f 61 ee bd 0b 12 81 bd 20 7a 1f be
       0.243206 -0.11639654 -0.063022695 -0.1557393
000150 b9 ef 79 3e 19 8d 71 3e 43 95 ca 3d 60 a6 3d be
       0.24407853 0.2358898 0.09891751 -0.18520498
000160 eb 6d 86 3d 58 39 8f 3e 75 c8 6d be 72 3e b3 3d
       0.06563934 0.27973437 -0.23221 0.08752145
000170 5d 3d 81 bd 79 cd ba bd ba 6f 56 be 8b f8 37 be
       -0.06310532 -0.09121222 -0.20941058 -0.17965905
000180 5a b6 83 be 08 07 5f bc 89 d9 18 be 19 3d 24 bc
       -0.2572506 -0.013612516 -0.14926733 -0.010024332
000190 a6 01 51 bd 20 fc 73 be 77 c7 6e 3d 03 56 03 3e
       -0.051026963 -0.23826647 0.058295693 0.1282578
0001a0 d6 ff 0a 3e c9 a6 b7 bd 92 1a 91 be d7 2f 0a 3c
       0.13574156 -0.089673586 -0.28340584 0.0084342575
0001b0 b5 a9 e5 3d 7b c1 c4 bb 29 63 3e be 0b a5 28 3e
       0.1121401 -0.00600451 -0.18592514 0.16469209
0001c0 40 3f 76 bd 49 4c 1e be aa 21 6f 3e 51 c8 34 be
       -0.060118914 -0.15458788 0.23352686 -0.1765454
0001d0 83 de 3b be a0 a2 7e 3e 89 22 75 3e 4d db 48 be
       -0.183466 0.24866724 0.23938955 -0.19614907
0001e0 0d 3f 8f be 41 00 73 be 5e 8f 50 be fe 8d 7c 39
       -0.2797779 -0.23730566 -0.2036719 0.00024085489
0001f0 d0 75 5d be d8 aa 8a 3e 20 40 1b be 4b a1 75 3e
       -0.21626973 0.27083468 -0.1516118 0.2398731

layer1.weight f4 [128, 128]
000000 82 34 6f bc e0 9e 82 bd ac 6e f2 bb 7b 37 b6 3a
       -0.014599921 -0.06377959 -0.007398447 0.0013902033
000010 94 d1 ae 3d 34 3f 36 3d 90 1b 3c 3b 42 0a 90 3d
       0.085360676 0.04449387 0.0028702952 0.070332065
000020 d0 eb 98 bd 88 49 69 3d 47 de 50 bd 19 0c d9 ba
       -0.07466853 0.05695489 -0.05099323 -0.0016559392
000030 9d b9 51 bd 85 da c1 bb 16 d4 48 bd 31 57 03 3d
       -0.051202405 -0.005915942 -0.049030386 0.032065574
000040 73 aa 43 bd 28 8e ef bc f3 2d ae 3d de cb b1 bc
       -0.047769975 -0.02924259 0.08504858 -0.021703657
000050 00 13 d3 bc 79 1d 34 bd 26 43 3a 3d 76 f8 7a bd
       -0.025765896 -0.04397342 0.045474194 -0.061272107
000060 ec 2b 30 bd 3e 70 76 3d 19 36 b1 3d 42 6d a2 3d
       -0.043010637 0.060165636 0.086528964 0.079309955
000070 0f a0 22 bd 26 9a 35 3b ba 17 9c 3d 7d 51 8f bd
       -0.039703425 0.0027710288 0.07621713 -0.069979645
000080 3b ab b4 3d a2 3b 60 3b f1 80 4f bd fa 2c 31 bd
       0.08821722 0.0034215231 -0.050660077 -0.043255784
000090 eb 58 a0 3c b5 40 80 3d a1 bc 05 3d e4 86 1e 3c
       0.01957365 0.06262342 0.032650594 0.009675715
0000a0 d5 19 82 3c 4b 70 ba ba 7f c9 85 bd 43 43 1a bd
       0.015881458 -0.001422414 -0.06532573 -0.037661802
0000b0 0a 3a fe bc 00 02 80 3d 79 06 09 3d 1d 74 30 3d
       -0.031033535 0.062503815 0.03345344 0.043079484
0000c0 96 8e 91 bd 34 d5 d9 3c 08 11 5c 3d 95 dd 6f 3d
       -0.07107274 0.026590921 0.05372718 0.058560926
0000d0 57 b7 8b bd 7b ef 80 bc 86 4b 4f 3d 25 4e 22 bd
       -0.06822079 -0.015739193 0.050609134 -0.039625306
0000e0 b6 dc 45 bd 17 ad 5e 3d 79 c5 aa 3c 48 a1 a4 3d
       -0.04830619 0.05436429 0.020846115 0.080385745
0000f0 9a eb 91 bd d0 3d 51 bb fc e6 d6 bc 54 df 21 3d
       -0.071250156 -0.0031927712 -0.026233189 0.039519623
000100 17 15 09 3c 53 7a 32 bc e9 62 43 bd e9 a4 ca bc
       0.008366845 -0.010893422 -0.04770175 -0.024736838
000110 3f 70 0e bd 4c 63 6d 3d 50 b2 31 bd 4d 80 de bc
       -0.034775015 0.057956025 -0.043382943 -0.027160788
000120 5c 8e 6a 3c f0 9c 82 bd 8b 0f 2f 3d 1e fd 7d bd
       0.014316168 -0.0637759 0.042739432 -0.06200897
000130 5e da 86 b9 e2 f9 1e 3c 45 f2 98 bd b3 92 a7 bd
       -0.00025721168 0.009703131 -0.07468084 -0.081822775
000140 8b 78 52 bd a1 ca a0 3c 8f b7 c6 bb 1a 9f 7e 3d
       -0.05138449 0.019627871 -0.0060643624 0.06216345
000150 b9 1f 82 3d a3 49 ab bd e2 7a 93 bd bd 89 01 3d
       0.06353707 -0.083636545 -0.072011724 0.031625498
000160 64 db 0b bd e4 8b 90 3d 86 db 50 bc d3 35 90 3d
       -0.034144774 0.07057932 -0.012747651 0.07041516
000170 2f e1 8c 3b 02 d2 cf bb e2 8a 97 3d d3 72 38 bb
       0.004299305 -0.0063421736 0.07399537 -0.0028144612
000180 e4 b8 6b 3c 56 e6 92 3d 31 44 92 bd 6a 3f ad 3c
       0.014387343 0.07172839 -0.07141913 0.021148402
000190 c3 7c 11 bd be 54 b9 3a 4e 22 a0 3d 82 67 0c 3d
       -0.035519373 0.0014139635 0.07819043 0.0342784
0001a0 68 25 a8 bd cc 30 94 3d 7a ea 7e 3d bb 36 81 bd
       -0.0821026 0.0723587 0.062235333 -0.06309267
0001b0 b3 59 85 b9 a2 af a3 bd 53 46 93 bd 89 30 f2 b9
       -0.00025434568 -0.07992484 -0.07191148 -0.00046193998
0001c0 e6 fe 03 bd 0e ee 6d bd f9 6c 0d bc 3c 06 d6 3c
       -0.032225512 -0.058088355 -0.008631938 0.02612602
0001d0 54 ec 8b bc 74 77 1c bd b5 e7 6e bd 08 50 ac 3d
       -0.017080463 -0.038199857 -0.05832644 0.08413702
0001e0 1a b3 56 3c 75 59 96 bc 01 0a b2 3d 57 4d 8b 3d
       0.013104225 -0.018353203 0.08693314 0.06801861
0001f0 c0 c6 7f bc ac ef 96 bd e2 58 9c 3d 04 f8 c2 bc
       -0.015611351 -0.073699325 0.076341406 -0.023799904
000200 dc 0e af bc b7 41 07 bd 45 b7 83 bb ef 00 8b 3d
       -0.02136939 -0.033021655 -0.00401965 0.067872874
000210 4a 53 a2 bd 99 9d df 3a a3 8a 13 bd c1 c2 b7 3c
       -0.079260424 0.0017060518 -0.036020886 0.022431733
000220 f9 d3 81 3d 4d 96 95 3d 26 91 c3 bc 42 66 cb bc
       0.06339259 0.07304058 -0.023872923 -0.024829034
000230 da 4c 9a bd 56 7d 4a bd 73 d6 68 3c 9f 3a db bb
       -0.075341895 -0.049435936 0.014211285 -0.006690338
000240 9d 6a 51 3d 4f 9c 3a bb ec 81 1b bd 90 b8 a7 3d
       0.051127065 -0.0028474515 -0.0379657 0.081894994
000250 fd ec db 3c 2b 85 1e bd 75 7d aa bb a1 41 35 3d
       0.026846403 -0.038701218 -0.005202944 0.04425204
000260 6f 06 81 3d 62 ca be 3c a6 c3 92 3d f4 58 41 bd
       0.06300055 0.023289863 0.07166223 -0.047203973
000270 d0 55 07 3d 51 98 39 3d 3f e2 21 3c e1 de 98 3d
       0.03304082 0.045311276 0.009880601 0.07464386
000280 c0 31 8b 3d 00 1d b1 bd 07 34 6c bd ff 72 67 3c
       0.067965984 -0.086481094 -0.057666805 0.014126538
000290 96 26 75 3d d6 ad 8b 3c 46 f9 16 3d a6 0b d6 bb
       0.05985125 0.017050665 0.03685882 -0.0065321503
0002a0 d4 0f e2 3b 27 2b 68 bb 03 6a 80 3c 0e 49 65 3d
       0.0068988595 -0.0035426111 0.01567555 0.055977874
0002b0 7a df 6a 3d 01 e3 a0 3c 86 78 49 bd 08 16 b2 3d
       0.05734203 0.019639494 -0.049187206 0.086956084
0002c0 ea 6e aa bd 80 62 d4 ba 1f 6f 0a bd b0 79 ac bd
       -0.083219364 -0.0016203672 -0.03379738 -0.084216475
0002d0 fe a9 35 3d ed 61 b0 bd 2e 80 a5 bd 9a 03 db 3c
       0.04435157 -0.08612428 -0.08081089 0.026735116
0002e0 23 ea 18 bc 97 7e a5 bc 5e b0 1c 3d 91 5e a8 3d
       -0.009333166 -0.020201964 0.038254134 0.08221162
0002f0 d6 0a 46 bd 74 57 e9 3c e7 a5 64 bc 33 a4 a1 bc
       -0.048350178 0.028484084 -0.01395557 -0.019731617
000300 19 00 8d bd 46 8b e0 3b ac f9 5b 3d 68 67 83 3d
       -0.06884784 0.00685254 0.053704903 0.064162076
000310 08 4b 22 bc d3 e1 17 3d bc e1 a5 bd f5 05 a4 bd
       -0.009905584 0.037080597 -0.08099696 -0.08008949
000320 55 6b b4 bd 62 c1 6e bd 81 d2 8f 3d 58 4c 72 3d
       -0.088095345 -0.058289893 0.07022572 0.05915484
000330 78 0d 95 bd d5 84 10 bd 94 7a a4 3d 6e e7 9a 3d
       -0.072779596 -0.03528293 0.080311924 0.07563673
000340 54 4a 62 3d b2 c6 d3 bc 97 53 f5 3c 78 44 50 bd
       0.055246666 -0.025851581 0.029947085 -0.050846547
000350 f6 b3 e7 3c 97 70 9b 3c c8 8f b4 bd f1 d2 9d 3d
       0.028284054 0.018974585 -0.088164866 0.077062495
000360 2e 92 25 3d ab aa a2 bc 93 ba af bd 5e 5d a6 3d
       0.04042261 -0.019856771 -0.08580508 0.08123277
000370 92 d9 30 3c 5b 2d 11 bd a1 d3 8c bd ec df f6 3c
       0.01079406 -0.035443645 -0.068763025 0.030136071
000380 77 04 a2 bd fd 98 cc 3b 7e 24 ad bd 19 7e 37 bd
       -0.07911008 0.0062438236 -0.08454226 -0.04479799
000390 f1 63 62 3d 80 18 d8 bc ca 8c ae bd 4b 0f 87 3d
       0.055271093 -0.02637887 -0.08522947 0.06594714
0003a0 92 19 49 bd 74 9c a6 3d 1b 20 31 3d c0 e3 be bc
       -0.04909665 0.0813531 0.04324351 -0.023301959
0003b0 b3 a1 69 bc 95 4f 76 bc 1c 85 31 bd e3 71 42 3d
       -0.0142597435 -0.015033622 -0.043339834 0.047471892
0003c0 3b d5 5a bd d4 19 95 bd de d9 a1 bd be b2 2f 3d
       -0.05342601 -0.07280317 -0.07902883 0.04289507
0003d0 47 5b 4d bd fb 68 59 3d e4 52 87 bd 78 b0 4a 3c
       -0.050135877 0.053078633 -0.06607607 0.012371175
0003e0 ae de d1 bb 38 1b 01 3d ea 6e 88 3d cf 88 a7 3c
       -0.0064047193 0.0315201 0.0666178 0.020450978
0003f0 8e 53 cd bc db a2 13 bd 3e 2d 4c 3c b7 af 24 bd
       -0.025064256 -0.036043983 0.012461958 -0.040206637

layer1.bias f4 [128]
000000 7a 7d ab 3d 4d 53 0e 3d 08 cf ab 3d 93 10 04 bd
       0.08373542 0.03474741 0.083890975 -0.03224237
000010 ee d0 82 bc d8 cd ad bd 3c 1c 3c bd 63 53 97 3d
       -0.015968766 -0.08486527 -0.045925364 0.07388952
000020 b9 77 13 3d b9 e2 03 bd 73 1b 04 3d df ee c1 bc
       0.03600285 -0.03219864 0.03225274 -0.023673473
000030 37 27 9c bd e5 50 88 bd 6b bb 26 bd f6 14 84 bd
       -0.07624667 -0.066560544 -0.04070608 -0.064493105
000040 41 04 63 bd f1 6f 82 bd ea 3e b1 3d d5 16 5e 3c
       -0.05542398 -0.063690074 0.08654578 0.013555248
000050 5d c8 b0 3d bd 9e 5c ba ec 35 77 bc a4 1f 81 bd
       0.08631966 -0.0008415988 -0.01508854 -0.06304863
000060 3b dc 48 bd e0 c4 7a bd 62 7a aa bd 2b b6 0b bd
       -0.049038153 -0.06122291 -0.08324124 -0.034109276
000070 cb 95 29 3d f3 af d0 bc ef ca 5c bc 20 e8 a1 3d
       0.04140262 -0.025474524 -0.0134761175 0.079056025
000080 60 16 4e 3d e1 80 86 bd 14 f0 58 3c 77 9d 99 bd
       0.050314307 -0.065675505 0.013240833 -0.07500737
000090 8f aa 67 bd 29 e8 b2 bd da f1 a5 bd 8e 12 b1 3d
       -0.05655914 -0.08735687 -0.0810277 0.08646117
0000a0 63 aa 36 b9 74 10 1b 3d 43 40 ad 3d 40 ca 21 3d
       -0.00017420347 0.037857488 0.084595226 0.03949952
0000b0 b1 f5 b2 bd aa 53 ae 3d fc 4f 9d bc ec 9c 6e bc
       -0.08738268 0.085120514 -0.019203179 -0.01456378
0000c0 74 c0 9d 3d 05 8e 6b 3c b2 e6 3f 3d 74 b3 13 bd
       0.07702723 0.014377122 0.046850868 -0.03605981
0000d0 04 08 e4 3c 10 8f 38 3c 3f 59 86 3d 38 29 42 3d
       0.027835853 0.0112645775 0.06559991 0.04740259
0000e0 9d 1f 85 3d 03 04 24 3d ec 21 56 3d 74 87 96 3d
       0.065001704 0.04004289 0.052278444 0.073500544
0000f0 12 51 98 bd 21 9c 97 bd 6d e4 27 3b 57 9d 94 3d
       -0.07437338 -0.07402826 0.002561833 0.07256573
000100 c4 8c e6 bc 98 8e f8 bc 46 66 ea bc f8 2a 00 3d
       -0.028143294 -0.030341431 -0.02861322 0.03129098
000110 2b 2a b8 3b a8 5c 13 bd e3 8e 9a 3c 80 11 5f bd
       0.005620261 -0.035977036 0.018866962 -0.05446005
000120 14 92 9c 3d ca f8 81 bd 4f b5 ac 3d be 18 10 3c
       0.0764505 -0.06346281 0.08433019 0.0087949615
000130 f2 ef b6 3c bf 52 58 3c 2d ea 3d bd 12 8c 4d 3d
       0.022331212 0.013203322 -0.046365906 0.05018241
000140 40 da 3e b9 77 66 97 3d 5b fa a0 3d 79 b7 f8 bc
       -0.00018201116 0.073925905 0.078602515 -0.030360924
000150 64 de f3 3c 1d 9e a9 3d a8 33 38 bd 78 f8 81 bd
       0.02976913 0.08282111 -0.04497114 -0.0634622
000160 8a 2a 88 3d 7e 85 82 3c 03 0d d3 3c 4f ca 4a 3d
       0.06648739 0.015932795 0.02576304 0.049509343
000170 a7 7c 78 3d 1b 19 b3 bd c9 94 a3 bd b5 fd 6e 3c
       0.060665753 -0.08745023 -0.07987363 0.014586856
000180 e9 26 07 bc 75 b3 66 3c 7e 40 a5 bd e2 b7 78 bd
       -0.008249023 0.014080872 -0.080689415 -0.06072224
000190 25 a5 50 bd 23 bb 62 bd ad a4 6c bd ed f9 31 bd
       -0.050938744 -0.05535425 -0.057774235 -0.04345124
0001a0 5a da a5 bd 6e 4e a7 3c be 7c c1 3c 44 e1 b0 bd
       -0.08098288 0.02042314 0.023619052 -0.08636716
0001b0 ce ed a9 bd c7 65 ab 3d fa 33 0e 3c 9a 27 0a bd
       -0.08297311 0.08369022 0.008679384 -0.033729173
0001c0 67 87 aa bc fc 9f 22 bd 7d d2 11 3d da 34 98 bb
       -0.020816518 -0.039703354 0.035601128 -0.0046449723
0001d0 40 46 6b bd 85 d6 5f bc e6 14 60 3d 9f 08 94 bd
       -0.057440042 -0.013661985 0.05470743 -0.07228207
0001e0 38 58 55 3c 19 e0 80 3b d5 e7 3b 3d c6 97 2f bd
       0.013021521 0.0039329645 0.04587539 -0.04286935
0001f0 e3 2a 82 3d df 6d 1f bd 8d 6d 36 bd c5 2b 5e 3d
       0.06355836 -0.03892314 -0.04453807 0.05424096

layer2.weight f4 [32, 128]
000000 2d dc 8f 3c 4d 66 80 3c cd 60 84 b9 c9 7a 84 3c
       0.017561043 0.01567378 -0.00025249124 0.01617183
000010 bb 37 94 3d 33 77 b1 3d 3d ad ae bd 58 3e 97 bd
       0.07237192 0.086653136 -0.08529136 -0.07384938
000020 f3 82 ad bd 35 41 55 bd 80 50 d2 3c e0 1f 1c 3d
       -0.08472242 -0.05206414 0.025673151 0.038116336
000030 e4 ea a0 bb 35 30 81 3d 98 aa 30 bd ab 98 20 bd
       -0.0049108136 0.06308023 -0.04313144 -0.039208096
000040 ae d1 4e 3b 77 70 3d 3d 1f 12 3d 3d 48 3a 28 bd
       0.0031558084 0.046249833 0.04615986 -0.041071206
000050 20 3e 2f 3d c0 63 8a 3d 09 a1 3d 3d af 56 07 3d
       0.042783856 0.06757307 0.046296153 0.033041652
000060 a5 c6 d4 3c f8 f1 8e 3c 81 10 af bd 23 c8 65 bd
       0.025973627 0.017449364 -0.0854807 -0.05609907
000070 d8 1a 94 3d f5 96 2a 3d e0 6a a8 3d b7 f2 aa bd
       0.072316825 0.04164787 0.0822351 -0.083470754
000080 f0 2a 0a 3d bf b7 8d bc 8e bf 0c bc e6 74 6f bc
       0.033732355 -0.017299531 -0.008590592 -0.014615273
000090 c4 47 25 bc 53 5d ab bd 77 f4 4f 3d ed 95 14 3b
       -0.010087911 -0.083674096 0.05077025 0.002267237
0000a0 fc 49 b0 bd 31 17 83 bd bc 2d 4b bd b6 99 f3 3c
       -0.086078614 -0.06400908 -0.049604163 0.029736381
0000b0 a4 2d 9e bd 98 be a5 bd 74 36 9e 3d f0 60 f9 3c
       -0.07723549 -0.080929935 0.0772523 0.030441731
0000c0 94 3e 9b bd 62 0b e3 bb 8f 80 c2 3c f2 5e 79 bd
       -0.07580295 -0.006928847 0.023742942 -0.060881563
0000d0 55 f9 c8 3c f5 9c 8f bc bd 34 7c bd 2b 58 3f bd
       0.024532953 -0.017530898 -0.061573733 -0.046714943
0000e0 2d b7 ed 3c ac 68 b2 3d 23 91 bd bc b8 b2 86 3d
       0.02901801 0.08711371 -0.023140496 0.06577057
0000f0 33 65 e4 3c 78 e3 9a bd b9 1e ea 3c 2d 0e 22 3d
       0.027880287 -0.075629175 0.028579103 0.0395643
000100 fc 3a 2f bd 39 50 11 bd 79 0e 0f bc 03 de 30 bd
       -0.04278086 -0.035476897 -0.008731478 -0.043180477
000110 b8 e8 8a 3d 7f 24 9a 3d 19 14 67 3d a2 ba 9f 3d
       0.06782669 0.07526492 0.05641565 0.07799269
000120 ae b4 26 3c be e8 32 3d 0e a7 24 3d 70 ed a1 bd
       0.010174913 0.04367899 0.04019838 -0.07906616
000130 51 70 77 3d fe 6c c8 3b 82 dd 98 3d cb 45 70 3d
       0.060409848 0.0061165085 0.07464124 0.05866031
000140 ba f8 7c 3d bd 83 fd bc 61 d1 07 bd 71 58 b3 bc
       0.06176064 -0.030946607 -0.033158664 -0.021892758
000150 5a d6 35 3d f9 be 9f 3d d9 0d 85 bd 25 ff 02 3d
       0.044393875 0.07800097 -0.06496782 0.031981606
000160 8b bd b0 3d a1 b2 98 3c 3f 5f 81 bd dc aa 0e bc
       0.086299025 0.018639864 -0.06316995 -0.008707728
000170 89 ef 30 bc 63 59 86 bd 02 9f 85 3d 9f 39 15 3d
       -0.010799297 -0.06560018 0.06524469 0.036431905
000180 40 a4 6b 3c 15 59 16 bd f0 ba 10 bd 5f 3c 95 3d
       0.014382422 -0.03670605 -0.035334527 0.072869055
000190 7f 78 f8 39 9f c3 8f 3d 2c ee ab 3c 5f a7 ab bd
       0.00047392023 0.07019734 0.020987593 -0.08381533
0001a0 aa d2 17 bd 7b 25 2c bd cb 96 ac bc aa ca d0 bc
       -0.03706614 -0.04202793 -0.021067997 -0.025487263
0001b0 b6 50 a2 3d 78 e5 6b bd 9e 99 95 3d a1 87 2f 3d
       0.07925551 -0.057591885 0.07304691 0.042853955
0001c0 f2 ac 00 bd 00 74 37 bd 78 fa 1c bd 64 07 f2 bc
       -0.031414934 -0.04478836 -0.038324803 -0.02954454
0001d0 69 0a 6b bc 56 1f 93 3a d0 01 b4 bd a5 42 df 3b
       -0.014345744 0.0011224549 -0.08789408 0.0068133646
0001e0 ab d1 22 bd 89 1f 11 bd 21 e9 b4 bc 07 ba 67 3d
       -0.039750736 -0.035430465 -0.02208382 0.056573894
0001f0 c6 f1 ee 3b 6f 91 86 bd ed 8d 03 bd 38 91 51 bd
       0.0072920052 -0.06570708 -0.032117773 -0.051163882
000200 f7 05 83 bd 41 66 88 bd c0 fe ad bd d2 fc b8 bc
       -0.06397622 -0.066601284 -0.08495855 -0.022581492
000210 dd 19 a4 3d 05 31 ac bd 85 a2 49 bd 90 08 33 3d
       0.080127455 -0.08407787 -0.049227256 0.043709338
000220 7a 14 54 3d 99 3a 18 bd 9c 34 d3 bc c9 f2 a3 bd
       0.05177734 -0.037165258 -0.025781922 -0.08005292
000230 da 9b 9f 3d b5 bf aa 3c 97 91 04 3c b0 e9 af 3d
       0.07793398 0.020843366 0.008091352 0.08589494
000240 85 a1 7e bb 3f 71 ab 3d 48 ef ae bd f3 4a 90 3d
       -0.0038853597 0.08371209 -0.08541733 0.070455454
000250 dd 3a 53 3d fd a4 67 bd 66 bf d8 3c 52 08 17 3d
       0.05156981 -0.05655383 0.026458453 0.03687317
000260 ce 5a ff bc 84 25 a5 3d 6a 5b 40 3d e6 7e 4b bd
       -0.031171229 0.08063796 0.04696218 -0.049681567
000270 69 01 5e bd e9 fe b2 3d cb 5f 2c bd 34 a7 90 bc
       -0.054200564 0.087400265 -0.042083543 -0.017657854
000280 b8 9f 41 3d 4e 94 78 3d 3e 5f 54 bd de be d4 3c
       0.04727146 0.06068831 -0.051848643 0.025969919
000290 6e 94 f3 3c 4c 3b 85 ba d4 e8 e1 3c 7f c8 9c 3d
       0.029733863 -0.0010164767 0.027576841 0.07655429
0002a0 ac a4 30 3d 4c 41 b9 3a 5d fc 8c 3d 11 f1 a2 3d
       0.043125793 0.001413384 0.06884072 0.07956136
0002b0 50 60 c3 3b a6 2b aa bd b7 41 83 bc 2e 3f 6b bc
       0.005962409 -0.083091065 -0.016022546 -0.014358325
0002c0 b5 71 3a bc 6c 12 0a 3d 55 96 7b bd e3 01 79 3d
       -0.011379649 0.033708975 -0.061422665 0.060792815
0002d0 b5 2b 37 bd 4d bd be 3c b0 1d 00 3d b6 f4 83 bd
       -0.044719417 0.023283625 0.031278312 -0.06443159
0002e0 9a ed 43 3d 2e 8d 24 3b 2d 46 3a 3d 76 3e bf 3c
       0.047834016 0.0025108564 0.04547708 0.023345213
0002f0 e7 ad 48 bd d8 a5 36 3d 40 80 4c bd 5b 5d 75 bb
       -0.04899397 0.044591755 -0.049926996 -0.0037439677
000300 97 fb fa 3c f7 27 6d 3c d5 b7 34 bc 58 cd 8d 3d
       0.030637546 0.01447486 -0.011030157 0.06923932
000310 5b b9 8f bd 3a 09 bb bc 50 1e 51 3d da ee 7e 3d
       -0.070177756 -0.022831548 0.0510543 0.062239505
000320 08 c8 5b bd ae 71 bb 3b 09 d2 93 bc e4 bc b4 bc
       -0.05365756 0.005720339 -0.018044489 -0.022062726
000330 4e 73 93 3c 76 48 91 3d 21 7b 1b bc d3 9a 26 3c
       0.017999317 0.07093899 -0.009489805 0.010168749
000340 20 d9 d7 3c e8 18 93 3c 44 f2 c7 bc 6e 38 85 3d
       0.02634865 0.017956212 -0.024407513 0.06504904
000350 10 cf 5f 3d 5c 5d 39 bd 8c 2f 77 3d 33 f3 9f 3d
       0.05464083 -0.04525505 0.06034808 0.078100584
000360 3c fa 77 bc 69 5a 35 bd db 89 ac 3d 49 5a 98 3c
       -0.015135344 -0.044275675 0.08424731 0.018597739
000370 f1 3b 45 3d 58 b8 5f 3d 04 26 35 bd 7f d6 35 bd
       0.048152868 0.054619163 -0.044225708 -0.044394013
000380 7b a8 74 bd c4 6b 9b bd fe 64 44 3d a8 79 17 bd
       -0.059730988 -0.07588914 0.047947876 -0.036981255
000390 21 9e 86 3d 76 ce 9b 3d 1b c7 a5 bd 82 fd 1a bd
       0.065731294 0.07607739 -0.08094617 -0.03783942
0003a0 b8 94 4d bb d2 f1 48 3d f7 f8 29 3d d2 af 21 3d
       -0.003136916 0.049058743 0.041497197 0.039474316
0003b0 82 30 c9 3c dd 43 30 3d 71 34 c9 bc 76 6c bc bc
       0.024559263 0.04303347 -0.024561139 -0.023000937
0003c0 4e 29 91 3d 62 29 a3 bd 54 27 7d 3d 72 ed 80 3b
       0.07087956 -0.079668775 0.061805084 0.0039345557
0003d0 ac 6d 9f 3d 2f 94 48 bd 8e f2 53 bc 7e db 6b 3c
       0.0778459 -0.048969444 -0.0129362475 0.014395593
0003e0 94 ad b2 bd a2 08 69 bd 7f d2 57 3b 95 ab 5b bd
       -0.08724514 -0.056893 0.0032931862 -0.05363043
0003f0 26 a4 8f bd a8 8c 98 3d c7 ae 46 bd 98 36 fe 3c
       -0.07013731 0.07448703 -0.048506524 0.031031892

layer2.bias f4 [32]
000000 c5 41 2b 3d b9 dc 94 bd df d4 a5 3d a7 e3 aa 3d
       0.04181077 -0.07268662 0.080972426 0.083442025
000010 18 bb 7b bd 24 60 83 bc b2 08 8d bb 01 6f b2 bd
       -0.061457723 -0.016037054 -0.004304015 -0.087125786
000020 d9 0c 2f 3c fa a9 e2 3b cc 48 44 3d 4d a2 46 bc
       0.010684215 0.0069172354 0.047920987 -0.012123656
000030 b4 13 36 3d 00 cf 71 3d b7 28 99 bb ce a7 20 3b
       0.044452384 0.0590353 -0.004674043 0.0024514082
000040 e9 e7 52 3d 86 38 8c bd 7f c0 ea bc ef f5 8f 3d
       0.051490698 -0.068467185 -0.028656242 0.0702933
000050 5b 26 5c bc fa 7b b7 3c 69 d5 98 3d c9 f0 90 bd
       -0.013436879 0.022397984 0.0746258 -0.07077176
000060 b3 a0 48 bd f0 e5 cb bc 25 21 6c bd 96 4b 1f bd
       -0.04898138 -0.024889916 -0.057648797 -0.038890444
000070 03 24 56 bd ef e1 45 3d 4f 3c c9 bc 83 b6 15 bd
       -0.052280437 0.04831117 -0.02456489 -0.03655101

Output.weight f4 [3, 32]
000000 cd ee 5b bd 5e 2b 26 3c c9 5d c7 3d a4 0b 16 3e
       -0.053694535 0.0101421755 0.09734685 0.14652878
000010 03 6a 0d 3c d6 53 32 3e 98 3d ff 3d f7 01 3e 3d
       0.008631232 0.17414793 0.1246292 0.046388593
000020 81 98 0d 3e 1f fe 1a be 4f 8b 01 bb 9f ff 29 be
       0.13827707 -0.15136002 -0.0019766872 -0.16601418
000030 c3 89 5d bd 4e 1e ea bd 4d 5a 97 bd 17 f7 b1 3d
       -0.054086458 -0.114315614 -0.073902704 0.08689707
000040 cc 54 d7 3d 60 b0 3a 3d ab 61 c4 3d a6 03 02 bd
       0.105142206 0.04557836 0.09588941 -0.03174176
000050 5b 72 f8 bd b8 f7 31 3e 82 13 06 be fd 0b 3b bd
       -0.121311866 0.17379653 -0.13093379 -0.04566573
000060 8e 02 69 3d 53 c5 d5 3d 03 42 ba bd 4c 3b df bd
       0.056887202 0.10438027 -0.09094622 -0.10899982
000070 84 c4 0d 3e 74 22 06 bd 3b dc 26 3e ae 38 78 bd
       0.13844496 -0.0327477 0.16294949 -0.06060093
000080 45 cd 2c 3e 73 fd e4 bb 27 17 1e be 81 57 6c 3d
       0.16875179 -0.0069882213 -0.1543852 0.057700638
000090 7a 04 d0 bd 55 54 0d 3e 5e 38 7d bd aa ea 8c bd
       -0.10157104 0.13801701 -0.061821334 -0.06880696
0000a0 f9 9d df 3d 27 8d 2d be 99 79 20 3d 6f d1 9c 3d
       0.10918803 -0.16948377 0.039178465 0.07657134
0000b0 e8 41 2a 3d 8c 78 a9 bd f2 5d c8 bd 89 cd 1b 3e
       0.04156676 -0.082749456 -0.09783544 0.15215124
0000c0 b1 f5 0c be 51 76 0b be 00 4c 94 bd 45 de 14 bd
       -0.13765599 -0.13619353 -0.07241058 -0.036344785
0000d0 f2 76 9a 3d c4 09 4a bd f6 00 1b 3e 8d e0 34 be
       0.07542218 -0.04932572 0.15137085 -0.17663784
0000e0 7a 3e 98 3d a2 20 be bd d1 39 10 be 66 d5 fb bc
       0.074337915 -0.09283568 -0.14084555 -0.030741405
0000f0 8c f1 88 3d 13 4f b9 3d db 57 98 3c db 1b a8 3d
       0.066866964 0.09048285 0.01859658 0.08208438
000100 ae 51 2b bc f5 69 39 bd 44 f8 0e bd 71 5e 07 bd
       -0.010456486 -0.045267064 -0.034904733 -0.03304905
000110 7c fa 1b be 68 9c 20 3e fe 95 1a be 13 f2 f0 3d
       -0.15232271 0.15684664 -0.1509628 0.11764922
000120 74 17 89 bd f0 2f 40 bd 90 74 24 be 55 9e ba 3d
       -0.066939265 -0.046920717 -0.1606009 0.09112231
000130 6c f5 26 bd 10 85 3a 3d 6e 0d 3e 3d 9f 4d a3 3d
       -0.040761396 0.045537055 0.046399526 0.079737894
000140 33 60 87 bd 7c 8c 17 3e 8b 94 4d 3c a5 15 4c 3c
       -0.066101454 0.14799684 0.012547622 0.012456332
000150 19 d1 33 3e 39 9b f8 3d a4 62 dd bd af 96 0e be
       0.17560233 0.12138981 -0.1080983 -0.13924669
000160 bc 2e 24 3d 5d 92 f1 bc 35 08 af bc b2 b6 2c 3e
       0.040083632 -0.029488737 -0.021366218 0.16866568
000170 6c 1c 1a 3e 91 58 0f 3e c5 a4 fc 3d e3 7c 1a 3e
       0.15049905 0.13998629 0.12336115 0.15086703

Output.bias f4 [3]
000000 f5 e6 85 bd 6b 1b fd bc b4 67 ca bd
       -0.06538192 -0.030896863 -0.09883061
