policy_scripts/Checkpoint/POLICY_beta.pth (torch, 92215 bytes, 8 tensors)

Input.weight f4 [128, 12]
-0.22429039 -0.061427575 -0.025972296 -0.1984759 -0.10857976 -0.13461141 -0.26947024 0.085239835
0.28600794 -0.17148693 -0.13741527 0.18330154 -0.13231802 -0.26849332 0.0066418243 -0.051248115
0.083177835 0.14084555 0.023051698 0.18175219 0.0473 0.1759641 -0.12910432 -0.12646568
0.074617594 0.06861962 -0.27071202 -0.16971919 -0.2455279 -0.10065625 0.2297792 0.08305138
-0.1766752 -0.01356074 -0.08434686 -0.15819159 0.11583935 0.21418624 -0.11618428 -0.20670381
-0.00800591 -0.21625842 0.17148605 0.27028143 -0.1206618 0.20366117 -0.049051292 -0.15613392
-0.102172345 0.056593068 0.068132386 -0.107943326 0.25599256 0.0013016413 0.25292036 0.09976216
-0.035562094 -0.14112432 -0.009633154 -0.22150946 0.2741646 -0.1739748 0.23520352 -0.17542732
-0.11312344 -0.27910262 -0.2865388 -0.14999422 -0.1320339 -0.07351845 0.07042495 -0.052597836
-0.20359121 0.03217294 -0.1361369 -0.08596805 0.05721927 0.018554388 -0.22261555 -0.21361956
-0.02703802 0.005496154 -0.15868151 -0.24979204 -0.10197168 -0.122716196 0.06737757 0.15222086
-0.14759482 -0.076762445 -0.2471782 -0.22292948 0.019157602 -0.10673329 -0.20455058 0.21652392
0.05986661 0.049509592 0.13438629 0.15932977 0.13055882 0.05928284 0.0010273221 0.1239734
-0.28837562 -0.26866883 0.14994934 -0.08901664 -0.13812521 0.15674452 -0.19325832 -0.2321553
0.21869047 0.11389104 0.27112943 -0.1967935 -0.21520682 0.10381345 -0.20361145 -0.099105
-0.044602342 0.01557659 -0.16307136 -0.011006812 -0.22512902 -0.21884997 -0.24031919 -0.19380407
0.076985724 0.09796499 -0.16066232 -0.26216164 -0.2678613 0.08037506 0.18544903 0.114685185
-0.22909677 0.11326084 0.06703211 -0.03384534 0.12595274 0.07185988 -0.11494427 0.20646997
0.07933505 0.22152889 -0.17977233 0.17338665 -0.08170342 0.24255386 -0.2403369 0.12916122
-0.022222178 -0.016876694 0.26322138 0.04687635 -0.043823205 -0.05007099 0.23771036 0.2603635
0.03437005 0.00073797215 -0.20357642 0.16341922 0.21093987 0.22736636 0.124465175 -0.18630219
-0.1802844 -0.19664842 0.025881305 0.17743252 0.046574987 -0.20580979 -0.07916857 0.031334095
-0.13795267 -0.07258051 0.17790776 -0.0067113573 -0.10576295 -0.25347462 -0.23104984 0.2885009
-0.0032882965 -0.029134471 -0.2716608 0.18359417 0.10282062 -0.28910154 0.08328376 -0.26387385
0.15035285 -0.26740175 -0.23638576 0.20115899 -0.13636632 -0.0025874455 -0.13700818 0.099984095
-0.056995284 -0.23601617 0.036317054 -0.2851942 -0.17614844 -0.06345994 0.2577162 -0.13344936
-0.0035064467 0.008722454 0.050608277 0.15867141 -0.05521102 0.008069714 0.09566895 0.21853471
-0.12915102 0.09313966 -0.09523011 -0.13280925 0.22241846 -0.2813588 0.00205957 -0.16339472
0.05807487 0.27690414 0.038245223 0.26778647 -0.09406009 -0.1487469 0.26293704 -0.07875185
0.2594413 -0.17769341 0.07171878 0.0124760475 -0.029933587 0.12942465 0.18349339 0.20264924
-0.011241697 0.08141789 0.07212865 -0.2577969 -0.032389883 -0.261348 0.17996897 -0.12108456
-0.2868653 0.03377588 -0.23130517 0.17387672 0.18862498 0.105427094 -0.14449176 0.09509949
00000000: 61ac 65be 7b9b 7bbd dac3 d4bc 443d 4bbe
00000010: 115f debd 93d7 09be 01f8 89be 3992 ae3d
00000020: a26f 923e 459a 2fbe 97b6 0cbe 66b3 3b3e
00000030: 607e 07be f577 89be a9a3 d93b 8be9 51bd
00000040: 2459 aa3d d139 103e ead6 bc3c 3f1d 3a3e
00000050: a5bd 413d ef2f 343e ec33 04be 3880 01be
00000060: 1cd1 983d 7188 8c3d c49a 8abe deca 2dbe
00000070: aa6b 7bbe dd24 cebd 3d4b 6b3e d816 aa3d
00000080: 58ea 34be de2d 5ebc 0cbe acbd fafc 21be
00000090: 2e3d ed3d a353 5b3e 06f2 edbd 2aaa 53be
000000a0: 382b 03bc d972 5dbe 0a9a 2f3e 5462 8a3e
000000b0: 891d f7bd 8e8c 503e 02ea 48bd 92e1 1fbe
000000c0: bc3f d1bd 22ce 673d fe88 8b3d 6411 ddbd
000000d0: 7511 833e d69b aa3a c77e 813e 1a50 cc3d
000000e0: 8fa9 11bd e582 10be 60d4 1dbc 60d3 62be
000000f0: 4d5f 8c3e 7326 32be 31d9 703e 38a3 33be
00000100: 43ad e7bd 8ae6 8ebe 37b5 92be 1698 19be
00000110: e533 07be d790 96bd f53a 903d d470 57bd
00000120: 377a 50be c6c7 033d 7967 0bbe 0410 b0bd
00000130: c15e 6a3d 5fff 973c 55f5 63be 16bf 5abe
00000140: d67e ddbc 1519 b43b 687d 22be 7cc9 7fbe
00000150: 87d6 d0bd a152 fbbd 40fd 893d c9df 1b3e
00000160: 1923 17be a135 9dbd 481c 7dbe a047 64be
00000170: 67f0 9c3c fc96 dabd b575 51be 72b8 5d3e
00000180: b136 753d 92ca 4a3d 8f9c 093e 5827 233e
00000190: 36b1 053e 90d2 723d 36a7 863a c4e5 fd3d
000001a0: f8a5 93be f68e 89be 528c 193e 5b4e b6bd
000001b0: b270 0dbe a381 203e 82e5 45be 1eba 6dbe
000001c0: 65f0 5f3e b53f e93d 7ad1 8a3e 3c84 49be
000001d0: 2d5f 5cbe 259c d43d 857f 50be 90f7 cabd
000001e0: f2b0 36bd f434 7f3c 2efc 26be ea55 34bc
000001f0: 3988 66be 351a 60be 3c16 76be 9374 46be
00000200: b1aa 9d3d dea1 c83d aa84 24be 0d3a 86be
00000210: 1e25 89be ae9b a43d 5ae6 3d3e 11e0 ea3d
00000220: 5898 6abe 4df5 e73d 2248 893d 69a1 0abd
00000230: c1f9 003e 462b 933d e767 ebbd dd6c 533e
00000240: 6a7a a23d 78d8 623e 3d16 38be 458c 313e
00000250: 1f54 a7bd 0a60 783e e01a 76be d742 043e
00000260: 490b b6bc fe40 8abc f4c4 863e 6a01 403d
00000270: f67f 33bd 3d17 4dbd 586a 733e 5d4e 853e
00000280: 9cc7 0c3d 7974 413a 5676 50be 5e57 273e
00000290: 9f00 583e bad2 683e 99e7 fe3d 00c6 3ebe
000002a0: 799c 38be 345e 49be 0805 d43c dfb0 353e
000002b0: 6ac5 3e3d cdbf 52be 2223 a2bd 2e58 003d
000002c0: 7743 0dbe 17a5 94bd 742d 363e f2ea dbbb
000002d0: 3f9a d8bd 6dc7 81be 5498 6cbe 64b6 933e
000002e0: 7680 57bb 6aab eebc 2017 8bbe 1c00 3c3e
000002f0: 9e93 d23d 1e05 94be ad90 aa3d 791a 87be
00000300: 19f6 193e e2e8 88be 1c0f 72be 9ffc 4d3e
00000310: 9da3 0bbe 2292 29bb df4b 0cbe 76c4 cc3d
00000320: e373 69bd 39ae 71be 31c1 143d f904 92be
00000330: 4260 34be 49f7 81bd 61f3 833e f3a6 08be
00000340: 6acc 65bb a0e8 0e3c a04a 4f3d c27a 223e
00000350: f324 62bd d536 043c 15ee c33d 90c7 5f3e
00000360: 2a40 04be 02c0 be3d 0108 c3bd 26ff 07be
00000370: aac1 633e 430e 90be daf9 063b f250 27be
00000380: eadf 6d3d 61c6 8d3e 06a7 1c3d 4f1b 893e
00000390: 94a2 c0bd 1b51 18be af9f 863e a648 a1bd
000003a0: 7dd5 843e 43f5 35be 4ce1 923d 5668 4c3c
000003b0: 4837 f5bc e587 043e b1e5 3b3e 4883 4f3e
000003c0: 182f 38bc 6cbe a63d 30b8 933d f5fd 83be
000003d0: 41ab 04bd 68cf 85be c949 383e 2ffb f7bd
000003e0: 02e0 92be 9458 0a3d 43db 6cbe bd0c 323e
000003f0: e826 413e 29ea d73d a6f5 13be 85c3 c23d

Input.bias f4 [128]
-0.14856702 -0.17116104 -0.10194911 0.0071693556 0.26564956 -0.20222725 0.2822733 -0.1831846
-0.014807935 0.03003309 0.24845658 -0.04342778 0.09418934 0.06286324 -0.18095893 -0.10410671
-0.11972893 -0.17020819 -0.2791123 0.10333049 -0.22112636 -0.021285735 0.23707323 0.079349376
0.18632473 0.13172434 0.04665122 -0.13452256 0.13432208 0.09451025 -0.17886104 0.04888121
0.21130784 -0.030606018 0.06179147 -0.06637477 0.10928158 0.08560973 0.07295017 -0.10716097
0.21500497 -0.06632354 0.25380844 0.2622653 0.08238863 0.076419495 0.05631738 0.16672055
-0.21012868 -0.16602203 -0.12777255 0.068174005 -0.07712206 0.27308226 0.08447354 -0.08221151
-0.1603607 -0.20692699 -0.22980715 0.14862119 0.09442845 0.28575534 -0.11013126 -0.14255205
-0.087269284 -0.111370385 -0.15852216 -0.14120692 0.1981935 0.2256213 -0.17967616 0.14971605
0.20672108 0.28264418 -0.1978128 0.2513342 -0.052526686 -0.038649347 -0.14687714 0.2851378
0.012672492 -0.061774593 -0.164385 -0.08637334 0.26850545 0.20105886 0.02456547 0.1654922
0.022724831 -0.13740246 0.08496877 0.0029423307 0.24322693 0.05318556 0.16379109 0.18559095
0.00022431964 -0.27219385 0.2046851 0.22514954 0.26587248 -0.20357005 -0.026621848 0.2275271
-0.24870871 0.2808655 -0.09236868 0.124831066 -0.04977328 0.2809706 -0.18281972 -0.21089771
0.036299393 0.16149113 -0.20511289 0.0389119 -0.23668781 0.25973302 -0.20951277 0.26523173
0.06661335 -0.13986748 0.06853851 0.19395725 0.17684153 0.260589 -0.19138582 0.14304799
00000000: f421 18be d744 2fbe b2ca d0bd eaec ea3b
00000010: 3803 883e a914 4fbe 2086 903e be94 3bbe
00000020: fb9c 72bc f407 f63c 676b 7e3e 54e1 31bd
00000030: 57e6 c03d 71be 803d 4c4d 39be e635 d5bd
00000040: 7134 f5bd 0e4b 2ebe cfe7 8ebe f09e d33d
00000050: f36e 62be 6c5f aebc 53c3 723e ed81 a23d
00000060: e9cb 3e3e bfe2 063e 5a15 3f3d 48c0 09be
00000070: ba8b 093e 978e c13d 5927 37be aa37 483d
00000080: 1561 583e 79b9 fabc 0d19 7d3d 7fef 87bd
00000090: 05cf df3d 2754 af3d e666 953d 3677 dbbd
000000a0: 432a 5c3e a3d4 87bd 2ef3 813e a347 863e
000000b0: 5fbb a83d d381 9c3d 0ead 663d cbb8 2a3e
000000c0: f92b 57be ae01 2abe cfd6 02be d09e 8b3d
000000d0: 2cf2 9dbd 70d1 8b3e 7700 ad3d 825e a8bd
000000e0: 9835 24be abe4 53be 9152 6bbe 2730 183e
000000f0: b463 c13d 864e 923e 7f8c e1bd 2af9 11be
00000100: 3dba b2bd 2816 e4bd a253 22be 8c98 10be
00000110: 3df3 4a3e 4509 673e 07fd 37be 2a4f 193e
00000120: b1ae 533e bdb6 903e 708f 4abe e0ae 803e
00000130: 3926 57bd c74e 1ebd f666 16be 95fd 913e
00000140: 49a0 4f3c 5b07 7dbd 8b54 28be 81e4 b0bd
00000150: 8c79 893e 60e2 4d3e 863d c93c ca76 293e
00000160: 6d29 ba3c 3bb3 0cbe 1b04 ae3d 1ed4 403b
00000170: 7b10 793e 1ad9 593d dab8 273e 8e0b 3e3e
00000180: 5837 6b39 fe5c 8bbe f998 513e 9a8d 663e
00000190: 7020 883e ab74 50be 1016 dabc ddfc 683e
000001a0: 7fad 7ebe 9acd 8f3e ca2b bdbd 6ea7 ff3d
000001b0: 11df 4bbd 61db 8f3e 1835 3bbe 92f5 57be
000001c0: acae 143d ee5d 253e 1d09 52be 1662 1f3d
000001d0: 4a5e 72be bafb 843e 848a 56be 74cc 873e
000001e0: 946c 883d 6c39 0fbe eb5d 8c3d bb9c 463e
000001f0: f215 353e ec6b 853e a5fa 43be 2c7b 123e

layer1.weight f4 [128, 128]
-0.036623158 -0.012539955 0.028227868 0.0066911825 -0.029722251 -0.013607742 -0.0038535201 -0.012687915
-0.026743298 0.077776834 -0.04657488 -0.025425835 -0.007225144 -0.05512991 0.0066016866 -0.073203675
0.07847953 0.0773149 -0.07279554 0.07797381 -0.06764157 -0.011106529 -0.0166483 0.020348651
0.032573104 -0.004212455 -0.02187848 0.0011034239 -0.082163736 0.055214982 -0.07818257 0.04064104
0.05357126 0.07631262 0.082747355 0.056737836 0.032472283 -0.033882186 0.0023426625 -0.010682355
0.05526821 -0.08561021 -0.02297652 0.014444391 -0.07221942 0.05071393 -0.07172478 -0.08107311
0.032670878 0.029736647 -0.056624558 -0.03530017 0.04991529 0.0059420452 0.012934119 -0.028147355
-0.01794155 0.07693367 -0.049246456 0.073769 -0.012417749 -0.05315757 -0.06836419 0.044729367
0.037797164 0.05884021 -0.049898576 -0.0050703525 0.06721108 -0.015527845 0.039603557 0.01191878
-0.0020662278 -0.016986394 0.041281812 0.052008647 -0.016708711 0.05356199 0.06535165 -0.022035029
-0.06392701 -0.04789017 0.0029786422 -0.022908723 -0.033368636 -0.060422134 0.033492394 0.047059152
-0.040322583 -0.043153126 0.019701082 -0.08036343 0.05881717 0.060582444 -0.06958782 -0.024554677
0.06703572 0.045327324 0.020700837 0.034472264 0.04796467 0.065519825 0.039067592 -0.061242625
0.008188913 -0.06402355 -0.05839188 0.009852768 0.005348006 -0.025842959 0.011483256 0.047289643
-0.03706149 -0.041345976 -0.04242249 0.01859608 0.059637602 0.062188443 0.046788752 -0.061541446
-0.0024851372 0.027568758 -0.065815195 0.04156621 -0.023070194 0.07349329 0.03594988 -0.006922738
0.016387716 -0.029178688 0.05769404 -0.074678466 -0.008892499 -0.048239194 -0.020023448 0.027836107
0.06742057 0.08268408 -0.038239352 0.03765829 -0.06188662 -0.008160466 0.040874615 -0.08196279
-0.064608246 -0.07384421 -0.056112625 0.04383376 -0.036799073 0.077381395 0.012161828 0.029179545
0.07929891 0.032641556 0.044600714 0.0082342895 0.016600523 -0.027970765 -0.08306567 -0.04987732
-0.06928136 0.05434202 0.046410557 -0.026536126 0.011639749 0.08501643 -0.083314605 -0.06083588
0.021189844 0.074000955 0.031054031 0.081672065 -0.054817 -0.0035713352 0.08838287 -0.010367459
0.0775996 -0.04798931 -0.032172386 -0.060184676 -0.067452304 -0.023584107 -0.035118748 0.021235883
-0.067570664 0.02046021 -0.06362591 0.03665713 -0.028749282 0.065126896 -0.020486122 -0.03994383
0.0020165578 0.0062313206 -0.00082192244 0.018804006 -0.038026325 0.06054886 0.060255628 -0.06465804
-0.07292927 -0.0712423 -0.059041366 0.03154145 -0.032187168 -0.06388148 0.08290548 0.07232993
0.014047907 -0.030582417 -0.028138064 -0.00706957 -0.0504731 0.04793138 0.035824966 -0.019638626
0.03549754 -0.0616283 0.04583578 -0.036984444 0.04977661 0.032747332 0.016633904 0.012103191
0.007840304 -0.018632602 -0.006472799 -0.006058374 -0.01156628 0.08239361 -0.011794594 0.060063682
0.037100695 -0.06432559 -0.024261747 -0.0093752695 0.078651406 -0.056026313 0.050641257 -0.06319525
-0.069594525 -0.054467697 0.058194112 -0.016167173 0.07126526 -0.03034716 0.070972025 0.085923985
-0.051639665 0.06491975 0.023604227 0.08442287 -0.0868729 0.017847102 -0.08332267 0.080306076
00000000: 2a02 16bd 6274 4dbc 213e e73c b541 db3b
00000010: 147c f3bc 02f3 5ebc 578b 7cbb f9e0 4fbc
00000020: c314 dbbc 7649 9f3d 4dc5 3ebd d749 d0bc
00000030: e7c0 ecbb e7cf 61bd f652 d83b cfeb 95bd
00000040: e0b9 a03d 4657 9e3d d415 95bd bcb0 9f3d
00000050: aa87 8abd 29f8 35bc 0462 88bc 37b2 a63c
00000060: 606b 053d a208 8abb 803a b3bc c3a0 903a
00000070: 7645 a8bd 1b29 623d 2f1e a0bd 3877 263d
00000080: 8a6d 5b3d ca49 9c3d 7277 a93d ef65 683d
00000090: a801 053d 0cc8 0abd 5b87 193b 0b05 2fbc
000000a0: eb60 623d 6854 afbd 4139 bcbc 2ba8 6c3c
000000b0: c6e7 93bd 69b9 4f3d 71e4 92bd a909 a6bd
000000c0: e6d1 053d 459a f33c 27ef 67bd e996 10bd
000000d0: fa73 4c3d 7db5 c23b a1e9 533c 4895 e6bc
000000e0: 28fa 92bc 668f 9d3d a7b6 49bd 3414 973d
000000f0: d073 4bbc c1bb 59bd 8602 8cbd 2436 373d
00000100: 33d1 1a3d 6f02 713d 7362 4cbd 3325 a6bb
00000110: f6a5 893d 8168 7ebc 5737 223d fd46 433c
00000120: 8d69 07bb 0d27 8bbc 1e17 293d 0507 553d
00000130: b5e0 88bc d163 5b3d 16d7 853d ce82 b4bc
00000140: 2aec 82bd 7c28 44bd 5335 433b 13ab bbbc
00000150: 8dad 08bd 337d 77bd 522f 093d 19c1 403d
00000160: 4b29 25bd 55c1 30bd 2a64 a13c 9595 a4bd
00000170: 46ea 703d 4c25 783d 0f84 8ebd e426 c9bc
00000180: 064a 893d 25a9 393d cd94 a93c ca32 0d3d
00000190: 9a76 443d 422f 863d 5705 203d 8cd9 7abd
000001a0: ca2a 063c c71e 83bd 532c 6fbd 816d 213c
000001b0: 533e af3b 9db4 d3bc 4424 3c3c c9b2 413d
000001c0: cacd 17bd 665a 29bd 34c3 2dbd ce56 983c
000001d0: 8f46 743d 4fb9 7e3d 90a5 3f3d e212 7cbd
000001e0: afdd 22bb e0d7 e13c 1eca 86bd 5541 2a3d
000001f0: b4fd bcbc a683 963d 2e40 133d 23d8 e2bb
00000200: 883f 863c 2508 efbc 9650 6c3d 06f1 98bd
00000210: d8b1 11bc 7696 45bd 3708 a4bc 8c08 e43c
00000220: cc13 8a3d 4556 a93d dea0 1cbd 943f 1a3d
00000230: d37c 7dbd 7ab3 05bc 246c 273d 1bdc a7bd
00000240: 5451 84bd a23b 97bd 5ad6 65bd 078b 333d
00000250: a0ba 16bd 237a 9e3d 6742 473c f109 ef3c
00000260: 7867 a23d 27b3 053d 3daf 363d 1de9 063c
00000270: d2fd 873c f222 e5bc 561e aabd 294c 4cbd
00000280: 63e3 8dbd bd95 5e3d ff18 3e3d 4a62 d9bc
00000290: a5b4 3e3c 181d ae3d d9a0 aabd 0b2f 79bd
000002a0: 5396 ad3c d08d 973d 0665 fe3c af43 a73d
000002b0: ca87 60bd 100d 6abb 1402 b53d 46dc 29bc
000002c0: 8aec 9e3d 7090 44bd 31c7 03bd 3584 76bd
000002d0: 6f24 8abd 7533 c1bc add8 0fbd e0f6 ad3c
000002e0: 7d62 8abd 2c9c a73c 4d4e 82bd c925 163d
000002f0: 9d83 ebbc 4061 853d 83d2 a7bc 249c 23bd
00000300: 3a28 043b 1b30 cc3b 4876 57ba dc0a 9a3c
00000310: 7ec1 1bbd 1502 783d 9bce 763d 6f6b 84bd
00000320: f15b 95bd 7ce7 91bd 5cd5 71bd 9c31 013d
00000330: b1d6 03bd 4bd4 82bd 59ca a93d b721 943d
00000340: 3129 663c fa87 fabc cc81 e6bc daa7 e7bb
00000350: e2bc 4ebd b253 443d 33bd 123d 2fe1 a0bc
00000360: de65 113d f56d 7cbd 4dbe 3b3d 007d 17bd
00000370: 8fe2 4b3d 1122 063d d343 883c 764c 463c
00000380: 9e74 003c 66a3 98bc c619 d4bb 5385 c6bb
00000390: 7f80 3dbc fbbd a83d 1d3e 41bc 5605 763d
000003a0: e6f6 173d 23bd 83bd 92c0 c6bc bb9a 19bc
000003b0: fd13 a13d d97b 65bd 356d 4f3d 836c 81bd
000003c0: 9387 8ebd 8519 5fbd f35c 6e3d 0571 84bc
000003d0: 85f3 913d 9b9a f8bc c859 913d eaf8 af3d
000003e0: 1d84 53bd a5f4 843d a75d c13c e6e5 ac3d
000003f0: 6bea b1bd 1634 923c 13a5 aabd 8377 a43d

layer1.bias f4 [128]
0.08687278 0.07897723 -0.020425197 0.080297746 0.03451675 -0.059550274 0.06514037 -0.041631684
0.044345587 -0.059096873 0.06597531 0.06988138 -0.026985971 0.063799426 -0.0104976585 -0.064962864
0.08575637 0.0050911168 -0.07589854 0.02473362 0.08414438 0.06663127 0.071272284 0.079670556
0.016571267 -0.0675136 0.014400164 -0.084452935 0.0040483465 -0.055186033 -0.046112657 0.051429585
0.014407156 -0.05041709 -0.024771126 -0.07998582 -0.047400136 -0.059080936 0.001493623 0.042172626
0.06091088 0.06303583 -0.014880506 0.016585445 -0.08364162 0.03875594 0.08874405 -0.06530355
-0.067981616 0.053285785 -0.01179209 0.04836001 -0.00485911 -0.08544068 -0.0009309894 -0.016419986
0.041032836 -0.044867657 -0.044875745 -0.07019894 0.07475529 -0.08168593 -0.08325573 0.006973939
0.069460504 0.041656468 -0.0091989245 0.06297515 0.07807103 0.043210957 0.063921385 -0.010026924
-0.020469777 -0.016915908 -0.018702304 -0.07638446 0.02652106 0.03798358 0.030489838 0.031781383
-0.047920354 0.05535203 0.053706322 0.004119357 0.08296842 0.010962202 0.031804815 -0.04263169
-0.010130669 -0.03518249 -0.008762429 -0.026316203 0.051580034 -0.052393768 -0.038534414 0.036430333
-0.057562675 -0.014428414 0.07409797 -0.07417311 0.031193072 0.0058873086 -0.036266025 0.005661411
0.056453556 -0.014928231 0.06072095 0.014534513 0.0044840393 -0.01761863 0.088345945 -0.028282681
-0.02622858 0.0022421342 -0.019797815 -0.03583101 -0.05838048 -0.040401325 0.056310903 0.086308226
0.005853217 -0.043934487 0.07407901 -0.018609324 -0.004112956 0.0031087 0.08095502 -0.04624029
00000000: 5bea b13d d0be a13d be52 a7bc 2573 a43d
00000010: 7061 0d3d fdea 73bd 5068 853d fc85 2abd
00000020: b8a3 353d 900f 72bd 101e 873d f81d 8f3d
00000030: af11 ddbc 46a9 823d 5ffe 2bbc 400b 85bd
00000040: 09a1 af3d 62d3 a63b b270 9bbd 299e ca3c
00000050: e453 ac3d fa75 883d 34f7 913d 512a a33d
00000060: 77c0 873c 9244 8abd aaee 6b3c a9f5 acbd
00000070: fea7 843b c00a 62bd a0e0 3cbd d4a7 523d
00000080: fe0b 6c3c 2782 4ebd d1ec cabc 9bcf a3bd
00000090: a526 42bd dafe 71bd acc5 c33a 34bd 2c3d
000000a0: b07d 793d ee18 813d 5ecd 73bc 33de 873c
000000b0: 4c4c abbd 8cbe 1e3d 71bf b53d debd 85bd
000000c0: f239 8bbd 3242 5a3d 9c33 41bc 2515 463d
000000d0: 2b39 9fbb 86fb aebd a40d 74ba 3583 86bc
000000e0: 0c12 283d 26c7 37bd a1cf 37bd 76c4 8fbd
000000f0: 4d19 993d f44a a7bd fb81 aabd a485 e43b
00000100: 4f41 8e3d f99f 2a3d 16b7 16bc 1ef9 803d
00000110: b4e3 9f3d f9fd 303d 37e9 823d f847 24bc
00000120: 3cb0 a7bc 3b93 8abc 9335 99bc 756f 9cbd
00000130: b242 d93c ac94 1b3d d3c5 f93c 322d 023d
00000140: 2248 44bd cfb8 623d 29fb 5b3d acfb 863b
00000150: 59eb a93d cf9a 333c c445 023d 919e 2ebd
00000160: 1bfb 25bc 841b 10bd 4a90 0fbc 1495 d7bc
00000170: 9645 533d d99a 56bd 43d6 1dbd f937 153d
00000180: d7c6 6bbd 2865 6cbc adc0 973d 12e8 97bd
00000190: 9d88 ff3c 53ea c03b af8b 14bd 5c83 b93b
000001a0: d83b 673d 8a95 74bc 88b6 783d 2a22 6e3c
000001b0: d9ee 923b f254 90bc b8ee b43d 15b1 e7bc
000001c0: 52dd d6bc c5f0 123b 072f a2bc 8ac3 12bd
000001d0: 5f20 6fbd dc7b 25bd 43a6 663d 5ec2 b03d
000001e0: 58cc bf3b a6f4 33bd bcb6 973d 9572 98bc
000001f0: fac5 86bb 55bb 4b3b bfcb a53d 7566 3dbd

layer2.weight f4 [32, 128]
0.053393785 -0.06494548 -0.05453825 -0.084473565 -0.08319368 0.01223033 -0.060694776 -0.08499729
0.024079438 0.001769806 -0.0773958 0.05236027 0.07877209 0.043887105 0.07196692 -0.0073627895
0.009090568 0.061103072 0.008775698 -0.02033755 0.06694621 0.04656658 -0.014475271 0.012080024
0.038047686 0.03912611 -0.060749456 -0.046616327 0.01305782 0.060752075 -0.053581495 -0.049174342
0.045249872 -0.048195183 -0.056521326 0.006369747 -0.08829394 -0.07952987 0.024383245 0.07799415
-0.01179083 0.057880502 0.07012766 0.08098499 0.08459558 0.018606722 0.014036525 -0.080037475
-0.0319948 -0.048302986 -0.0048050922 0.042937648 -0.025852066 0.06106961 0.053154144 -0.015939113
-0.0616683 0.06420577 0.052630026 -0.010438573 0.045031894 0.0642475 -0.0015809159 0.011680524
-0.08316108 0.026148926 0.037940796 0.06424355 -0.002127825 -0.061889645 -0.05526101 0.085269764
-0.064031705 0.038170267 0.031411864 -0.058843095 -0.022298018 0.057454057 0.08393893 -0.0057202717
-0.029186038 -0.059873182 -0.03126303 -0.060387835 -0.053341724 -0.040431138 -0.0057842997 -0.030027442
0.005672681 -0.04755542 0.081770435 0.06209226 -0.06468626 -0.08545082 0.06842185 -0.03419803
-0.017907448 -0.030677553 0.034140524 -0.0014234618 0.005916887 -0.013756889 0.028454896 0.00028919082
0.07263645 -0.027116287 0.007802008 -0.06543868 0.031713583 0.075827725 0.010215678 -0.050033145
-0.048104636 0.033778433 -0.050134525 0.08488375 -0.07717217 -0.070077986 0.01800635 -0.02738574
0.08677927 -0.025556847 -0.057209134 -0.072651505 -0.03583247 0.035251446 0.07622182 -0.071466565
-0.055974502 -0.009016043 0.013826804 -0.073708 0.08306245 -0.060784 0.007972178 0.052087694
0.061095323 -0.081149064 -0.02517095 0.03772889 -0.056482486 0.0012149119 0.024054546 0.083910346
-0.039498534 -0.038036145 -0.045006078 -0.03054517 0.026636228 -0.026548734 -0.043054722 0.05884489
0.031916406 0.022592679 -0.06677168 0.047359537 -0.005944259 -0.012891825 0.02615836 -0.013675583
-0.019773172 0.0030567155 -0.0023376546 -0.0072839577 -0.05936474 -0.049971625 -0.04191565 0.010992732
-0.004448873 0.006766304 -0.08429432 0.049203344 0.04782211 -0.068089224 0.051640894 0.02363277
-0.03264515 -0.0063702012 0.057511512 0.085860394 -0.086398765 -0.059069954 0.010594892 0.0023379447
6.1492254e-05 0.015807563 0.024931015 0.06507567 0.08152653 0.036440786 -0.04204956 -0.030105505
-0.0814062 0.013355039 0.06717631 -0.011735423 -0.023863746 0.044537682 0.073651575 -0.0064151613
-0.012885434 -0.028244173 -0.028972618 -0.001763065 0.0060699475 -0.04267227 0.043113183 -0.08654959
0.04470235 0.0395503 -0.07090183 -0.008358289 0.044473637 -0.06986366 -0.052157298 -0.008479276
0.06873199 0.076940246 0.0525235 -0.031360406 0.0012191924 0.0075320844 0.08204129 -0.017898891
-0.018325003 -0.013243732 -0.06232019 -0.04352742 -0.0664935 0.03442928 0.05911905 -0.07838535
0.08253511 0.05564647 -0.082757935 0.06691302 0.05482809 -0.074381925 0.037929043 0.081994034
-0.04021827 0.016800586 -0.083176255 -0.053240087 -0.041328255 0.044178475 -0.044678062 -0.074771486
-0.035003535 0.022105718 0.029187592 0.07741542 -0.044554457 0.015384672 0.04761563 0.04958663
00000000: 71b3 5a3d 2302 85bd 8063 5fbd 7a00 adbd
00000010: 7361 aabd b961 483c 169b 78bd 0f13 aebd
00000020: 3e42 c53c d6f8 e73a b081 9ebd b977 563d
00000030: 4353 a13d f7c2 333d 6463 933d 8e43 f1bb
00000040: 9bf0 143c 3747 7a3d f2c7 0f3c ef9a a6bc
00000050: 181b 893d 99bc 3e3d b029 6dbc 4beb 453c
00000060: e4d7 1b3d b342 203d 6cd4 78bd c3f0 3ebd
00000070: 77f0 553c 2bd7 783d 4578 5bbd 096b 49bd
00000080: ee57 393d 5068 45bd e882 67bd 50b9 d03b
00000090: 74d3 b4bd 8ee0 a2bd 5fbf c73c 66bb 9f3d
000000a0: 532e 41bc 1b14 6d3d 179f 8f3d 75db a53d
000000b0: 7340 ad3d 206d 983c 74f9 653c b0ea a3bd
000000c0: fb0c 03bd 5ad9 45bd 0974 9dbb 63df 2f3d
000000d0: b6c7 d3bc 2124 7a3d 29b8 593d be92 82bc
000000e0: e697 7cbd 517e 833d 9592 573d 8c06 2bbc
000000f0: 5d73 383d 3194 833d bc36 cfba ab5f 3f3c
00000100: 5b50 aabd 4636 d63c cf67 1b3d 1f92 833d
00000110: fb72 0bbb ff7f 7dbd 5e59 62bd eaa1 ae3d
00000120: 0e23 83bd 6d58 1c3d baa9 003d 7505 71bd
00000130: 55aa b6bc f254 6b3d 2ce8 ab3d 1e71 bbbb
00000140: 8f17 efbc 953d 75bd aa0d 00bd 3c59 77bd
00000150: da7c 5abd 1f9b 25bd 398a bdbb 1cfc f5bc
00000160: e6e1 b93b 79c9 42bd 4277 a73d 7454 7e3d
00000170: 3b7a 84bd d700 afbd c120 8c3d 3c13 0cbd
00000180: a4b2 92bc 7e4f fbbc efd6 0b3d 7493 baba
00000190: 72e2 c13b 9364 61bc 3e1a e93c 899e 9739
000001a0: 6bc2 943d fa22 debc fda7 ff3b b704 86bd
000001b0: 1ae6 013d 914b 9b3d a95f 273c 8eef 4cbd
000001c0: 5e09 45bd 415b 0a3d dc59 4dbd 88d7 ad3d
000001d0: 710c 9ebd 0c85 8fbd 0e82 933c 0f58 e0bc
000001e0: 54b9 b13d 985c d1bc 2054 6abd 50ca 94bd
000001f0: 11c5 12bd d263 103d 301a 9c3d 105d 92bd
00000200: 8545 65bd 06b8 13bc d289 623c 38f4 96bd
00000210: a51c aa3d a5f8 78bd bd9d 023c e859 553d
00000220: 173f 7a3d 7b31 a6bd 4f33 cebc 9c89 1a3d
00000230: 2e5a 67bd ae3d 9f3a 0a0e c53c 30d9 ab3d
00000240: 37c9 21bd cacb 1bbd 4b58 38bd dd39 fabc
00000250: 3834 da3c bb7c d9bc 265a 30bd 5707 713d
00000260: c7ba 023d 4814 b93c 97bf 88bd 13fc 413d
00000270: 0fc8 c2bb 3c38 53bc 0f4a d63c 8d0f 60bc
00000280: 59fb a1bc 2d53 483b 5633 19bb 44ae eebb
00000290: 7128 73bd 0caf 4cbd bfaf 2bbd dc1a 343c
000002a0: dac7 91bb dfb7 dd3b 80a2 acbd 7289 493d
000002b0: 1ee1 433d 5d72 8bbd 6785 533d 8399 c13c
000002c0: ecb6 05bd 1fbd d0bb 3191 6b3d 93d7 af3d
000002d0: d6f1 b0bd 56f3 71bd 3396 2d3c 3438 193b
000002e0: 67f5 8038 dd7e 813c 213c cc3c 6546 853d
000002f0: 62f7 a63d ef42 153d 293c 2cbd d29f f6bc
00000300: 4bb8 a6bd 18cf 5a3c bc93 893d ee45 40bc
00000310: e77d c3bc 256d 363d a3d6 963d 4636 d2bb
00000320: 6d1d 53bc 5360 e7bc fc57 edbc a516 e7ba
00000330: 69e6 c63b 1ec9 2ebd 7397 303d e940 b1bd
00000340: d019 373d 7fff 213d fb34 91bd 34f1 08bc
00000350: fd29 363d ae14 8fbd e4a2 55bd a9ec 0abc
00000360: 5cc3 8c3d d992 9d3d e222 573d c573 00bd
00000370: 4fcd 9f3a b4cf f63b 4405 a83d b2a0 92bc
00000380: 511e 96bc 3dfc 58bc 7543 7fbd cf49 32bd
00000390: be2d 88bd b705 0d3d d126 723d 8088 a0bd
000003a0: 2b08 a93d 8eed 633d fe7c a9bd b209 893d
000003b0: 6b93 603d 8d55 98bd 7c5b 1b3d 7dec a73d
000003c0: eabb 24bd 62a1 893c 5058 aabd 4712 5abd
000003d0: d147 29bd 7df4 343d 5800 37bd cb21 99bd
000003e0: de5f 0fbd 0d17 b53c d11a ef3c fa8b 9e3d
000003f0: bc7e 36bd fe0f 7c3c 9b08 433d 5a1b 4b3d

layer2.bias f4 [32]
-0.014615233 -0.07128667 -0.0500878 0.030177841 -0.027621299 -0.040376477 -0.043791693 -0.043019112
-0.036013197 -0.026658904 0.013234942 0.051369023 -0.06135758 0.0036897615 0.023152612 -0.048971057
0.03296048 -0.087161176 -0.0042182985 -0.046554334 -0.07519764 0.025669212 -0.0046204953 -0.0783184
-0.0014996047 -0.042720616 0.06028199 0.034360852 -0.084239 0.040696163 -0.06948794 -0.033488985
00000000: bb74 6fbc bffe 91bd dd28 4dbd 8537 f73c
00000010: 1046 e2bc ce61 25bd eb5e 33bd cf34 30bd
00000020: 9382 13bd c663 dabc 5fd7 583c 5368 523d
00000030: 1652 7bbd edcf 713b 8caa bd3c e095 48bd
00000040: 9101 073d 8f81 b2bd a739 8abb c2af 3ebd
00000050: 3801 9abd 3d48 d23c 8667 97bb 6665 a0bd
00000060: 628e c4ba d0fb 2ebd 3fea 763d f7bd 0c3d
00000070: 7f85 acbd 05b1 263d b14f 8ebd bf2b 09bd

Output.weight f4 [2, 32]
0.16484354 -0.05385171 -0.0330889 -0.051154587 0.123490706 -0.00638612 -0.08228302 -0.0144003
0.16934691 -0.019636976 0.06472997 -0.049208105 -0.14584903 -0.028981011 0.007591722 -0.025578102
0.12145446 -0.15788722 0.12647393 0.11903745 -0.11358546 -0.05280899 0.032458525 0.04711861
-0.0509103 0.037978675 0.1593111 0.046566207 -0.12660263 -0.14382659 0.16902855 -0.15160976
0.08529899 0.10413125 0.17083454 -0.14204445 0.14347453 0.16199066 -0.061248478 0.098248646
0.11956801 0.06196244 -0.005915605 0.047254976 -0.086749986 -0.091425024 -0.08233117 -0.045022763
-0.11754851 0.052173063 0.12861912 0.06669315 -0.14780214 -0.08708217 -0.13315788 -0.07507554
-0.12186536 -0.110375255 -0.030399438 -0.11239399 -0.1037354 -0.11364389 0.048428737 -0.07554737
00000000: bfcc 283e 9c93 5cbd 3a88 07bd 7987 51bd
00000010: b2e8 fc3d a842 d1bb 0084 a8bd 3cef 6bbc
00000020: 4769 2d3e b9dd a0bc 2691 843d 708e 49bd
00000030: 7359 15be 9669 edbc fbc3 f83b 2b89 d1bc
00000040: 1ebd f83d 30ad 21be 6282 013e e8c9 f33d
00000050: 7e9f e8bd 3d4e 58bd 3bf3 043d 72ff 403d
00000060: 5287 50bd 878f 1b3d 7322 233e 35bc 3e3d
00000070: 1fa4 01be 4747 13be d215 2d3e 973f 1bbe
00000080: 3db1 ae3d c442 d53d 40ef 2e3e 1a74 11be
00000090: fdea 123e e1e0 253e afdf 7abd 9636 c93d
000000a0: 13e0 f43d 54cc 7d3d b1d7 c1bb 6f8e 413d
000000b0: faa9 b1bd 0b3d bbbd 3f9d a8bd ca69 38bd
000000c0: 46bd f0bd 6cb3 553d bbb4 033e 6b96 883d
000000d0: 7259 17be 2358 b2bd 8a5a 08be 34c1 99bd
000000e0: 8c94 f9bd 6c0c e2bd 3e08 f9bc d22e e6bd
000000f0: 3a73 d4bd 21be e8bd 365d 463d 94b8 9abd

Output.bias f4 [2]
-0.0254744 0.1614211
00000000: b0af d0bc 934b 253e
