DQN_scripts/Checkpoint/DQN_beta_new_state.pth (torch, 26557 bytes, 8 tensors)

Input.weight f4 [128, 11]
00000000: 1b36 6abe 25ea 53bd 7b61 aabd 2ca3 12be
00000010: a220 07be ff4c e3bd 0abc 993e 88c1 723e
00000020: b648 4dbe d8d6 633d 5e02 443e 185b 78bd
00000030: 21e1 293e 81ad 3b3e a65d a8bb d6b7 26be
00000040: e180 90be 06b4 70bd 12f8 843e e10d 56bb
00000050: d0c7 fabd 5896 06be 38ab 0dbd 9865 cabd
00000060: 43fe 833d d31b 94be fdf2 87be a13a 4a3d
00000070: aaf3 f0bd bbec 1b3e 31af 4f3e 798c 68be
00000080: 94a5 223e e69e 063e 696f 323e 2de9 cebd
00000090: 047c d2bd bc82 81bd 59b0 c03d 16f8 91be
000000a0: 8660 80be 7ad2 2dbe a305 70bd af13 30be
000000b0: 3810 5cbe 5278 343e cf98 87be 7430 163e
000000c0: 0d66 603d 9623 8a3e 1be0 8b3e d670 973d
000000d0: 774e 85be 1e2e cabd 7655 ac3d 7fd6 a73d
000000e0: 7fd5 85be b79b f03d e2c8 99bd 58c4 90bc
000000f0: b54e 37be 7152 553e 6696 66be 2e6e cf3b
00000100: 7b4b ba3c c088 1f3e cf70 3cbe 2f4f 22be
00000110: 5fce 54be 3ff4 963e ab0d 123d 41e8 f5bd
00000120: 1c6e 92be 58fd a1bd 350c 88be b875 99be
00000130: 7215 bebc cf5c 983e 5e76 913d 05bf d83d
00000140: a644 13be fc81 86be 9c86 6fbe 5f9e b63d
00000150: 93a5 b93c 89c2 533e d353 983e d2c0 793e
00000160: 499a 373e 618c 263e 261d 253e d75a 223e
00000170: 2f80 323e d7f3 153e f1a0 653e 4544 bdbb
00000180: 0de0 5fbe 7c8d 8f3e fb4e 1a3e 2980 43be
00000190: c389 e9bd e1ad 90bc 2172 08bd 96ff 873e
000001a0: bf59 093e 0e2a 6b3e 4559 533d 90d6 e43d
000001b0: 43e6 573e d745 06bd a8c0 48be f8f8 d83d
000001c0: 2cb7 15be b33c 27be 9ecf a5bd cb2c abbd
000001d0: 946c 203e 3ae4 bfbd e8a8 90bc 1b19 9abe
000001e0: 8d57 6ebe 09f7 2dbe 342a 60bc 77e0 97be
000001f0: 2a99 2a3c 6bbc 61bc 15f5 a6bd 1b26 4e3e
00000200: 17fe 863e e9f5 1d3e 8a44 db3d 956f 403e
00000210: 9bb7 9b3d b3c3 6ebd 8bdf 73be 79a7 4ebe
00000220: 8a22 683e dfac 603d 606f 9a3b a890 92bd
00000230: ff3c ecbc d150 79be d642 93be 7858 98be
00000240: a062 b13b 1cab 323e 68df 253e b437 643d
00000250: ad4e 8b3e f94c 01be 8f2b 313d 7ed8 1cbe
00000260: 531b ef3d f828 94be 4860 1bbe 2cb3 14be
00000270: c0e6 263e 02b1 863e 17ec 803e eff3 d8bd
00000280: 7fb9 943c 4896 e3bd 028e a9bd 4645 db3d
00000290: 71ee 07be 7271 c0bc 1290 11be 6bbb 94be
000002a0: f3fd c0bc 944b 57be 5cbe 4dbe f554 8dbe
000002b0: 6887 9dbd 0fdd 3b3d 5ddc e33d 5f6d aa3d
000002c0: 173d 84bb a293 4b3e decf 313e ca0e ff3d
000002d0: ab43 ed3d 9b82 5dbe d11c 8c3e 5289 abbc
000002e0: 979b c4bd 1945 11be c6e7 253e bc97 043d
000002f0: 4d68 3cbe 976f 86be 8e5b 273e 25df 723e
00000300: da46 c6bd 5427 9a3e 0ea2 1a3e 79d4 0f3e
00000310: 300a 0c3e a8e6 523e 02d4 133e 16b7 febd
00000320: 2a8d 65bd c44d 753d d602 8e3e 5869 a3bd
00000330: 7caa f7bc 4104 d03c 2ad8 6d3e bab5 143d
00000340: 7d5b 97bd a6a6 053e 6f8e 3ebe 5d86 92be
00000350: 7a69 41be 6472 243e a072 8c3b 88f7 cdbd
00000360: 94c3 15be e454 833e 788a 09be 9b67 80be
00000370: 4ed4 1a3e 17c0 0fbe c54c 0ebe acec 4a3d
00000380: f1a4 4f3e 411e 96be 2236 613d e80a e2bd
00000390: 17e2 45be 5547 82be 1b7c 63be e744 593e
000003a0: cb92 8cbe a5ba 91be 8d95 91be d3f6 06be
000003b0: 5749 763e 3931 ef3d 6ff3 b53c 8122 c83d
000003c0: 2bb7 5bbe 767e 2e3e 7948 213e b96a 2fbd
000003d0: 6b8f 943e 39b9 233e 1750 8f3e 5867 8dbe
000003e0: 4aa0 b5bc 7e0e 8f3d 0280 d0bd 1d8f 303c
000003f0: 7ad9 eb3d 7365 9dbd 217a 91be c760 223e
-0.22872202 -0.05173697 -0.08319374 -0.14320058 -0.13196042 -0.1109867 0.30026275 0.23706639
-0.20047268 0.055624813 0.19141528 -0.06063375 0.16589786 0.18327905 -0.005138117 -0.16281065
-0.28223327 -0.058765434 0.25970513 -0.003266208 -0.122451425 -0.13143289 -0.034587115 -0.09882659
0.06444981 -0.28927478 -0.26552573 0.04937232 -0.11765225 0.15227024 0.20281674 -0.22709836
0.15883476 0.13146552 0.17425312 -0.101030685 -0.1027756 -0.06323764 0.09408636 -0.28509587
-0.25073642 -0.16974822 -0.058599126 -0.17195009 -0.21490562 0.17624024 -0.2648377 0.14666921
0.054784823 0.26980275 0.27319416 0.073945686 -0.26036426 -0.098720774 0.08414738 0.08195209
-0.26139447 0.1174845 -0.075090185 -0.017671749 -0.17901118 0.2083223 -0.2251831 0.006330273
0.02274107 0.1557951 -0.18402408 -0.15850519 -0.2078185 0.2948322 0.035657566 -0.120071895
-0.28599632 -0.079096496 -0.26571813 -0.29972625 -0.023203585 0.29758307 0.07102655 0.10583309
-0.14381656 -0.26271045 -0.23391193 0.08916926 0.02266196 0.20679678 0.29751453 0.24389961
0.17929949 0.16264488 0.161244 0.15854965 0.1743171 0.14643799 0.22424676 -0.0057759606
-0.21862812 0.28037632 0.15069191 -0.19091858 -0.11403229 -0.017661037 -0.033311967 0.26562184
0.13413142 0.22965261 0.051598806 0.11173737 0.21083932 -0.03278145 -0.19604743 0.10594362
-0.14620656 -0.16331749 -0.080962405 -0.08358153 0.1566642 -0.09369703 -0.017658666 -0.3009728
-0.23275585 -0.16988768 -0.013681937 -0.2966344 0.010412494 -0.0137778325 -0.081522144 0.20131724
0.2636573 0.15425839 0.10706432 0.18792565 0.07603379 -0.058292102 -0.23815744 -0.20181073
0.22669426 0.054852363 0.004712984 -0.07156497 -0.028837679 -0.24347235 -0.2876193 -0.29754996
0.0054133683 0.17448086 0.16198504 0.055717185 0.27208462 -0.12627019 0.04325443 -0.1531696
0.116751336 -0.28937507 -0.15173447 -0.14521474 0.16298962 0.2630692 0.25180122 -0.10593402
0.018154858 -0.11112648 -0.08279039 0.10706572 -0.13274552 -0.023491595 -0.14215115 -0.2904924
-0.023558592 -0.21024925 -0.20092148 -0.2760388 -0.07691842 0.045865115 0.11126015 0.08321642
-0.004035603 0.19880536 0.17364451 0.12453993 0.11585172 -0.21631853 0.27365735 -0.020939503
-0.09599989 -0.14186515 0.16201696 0.032371268 -0.18399163 -0.2625701 0.16343519 0.23717935
-0.096814826 0.3010813 0.15100881 0.14045896 0.13675761 0.20595801 0.14436343 -0.124372646
-0.056042828 0.059888616 0.2773654 -0.07979077 -0.03023266 0.025392653 0.23226991 0.03630612
-0.07390497 0.13051853 -0.18609022 -0.28618136 -0.18887892 0.16059262 0.0042861253 -0.100569785
-0.14625388 0.25650704 -0.13431728 -0.25079045 0.1512005 -0.1403812 -0.13896473 0.049542114
0.20277764 -0.29319957 0.054983266 -0.110372365 -0.19324528 -0.25445047 -0.22215311 0.2121769
-0.27455744 -0.2846271 -0.2843441 -0.13180093 0.24051414 0.1167931 0.022210805 0.09772206
-0.21456592 0.17040429 0.15750302 -0.042826388 0.2901567 0.15988626 0.2799079 -0.27617908
-0.022171158 0.06985186 -0.101806656 0.010776308 0.1151609 -0.076853655 -0.2841349 0.1585723

Input.bias f4 [128]
00000000: 2a25 8e3e 5382 093e 937a 5bbe de2f 8dbe
00000010: 1eed 853e 84ad 92be f2ce 2abd 2d0c 1e3e
00000020: 7762 78be 7aa6 4b3c 3a90 18be 64f3 b3bd
00000030: 56e7 443e 0fb1 84be b583 53bd 5019 153e
00000040: b50e cdbd c4ba 50be 6375 37be 5556 893d
00000050: 6695 813e 94b8 82be db4e 8bbe 4120 bbbd
00000060: 15db 68be d7fb 74be 145a 5b3e df86 8f3e
00000070: e41d 0bbe b22b 2ebe ff28 fcbd f094 14be
00000080: aecf 15be cb14 95be cf99 05be 5d35 d9bd
00000090: 447e d63c 8265 073e 5490 5abd 217b 6d3d
000000a0: 8ec2 86be 50c8 16be 549c 823c 7213 3ebd
000000b0: 2e47 673e f97f 51bd 2f3e 8dbe b3e6 67be
000000c0: 7a71 9fbd a7ac d2bd 6d75 84be a709 8cbe
000000d0: 3d6c 81be 512b b1bd 064d 823e 970b 86be
000000e0: c39e 3ebe d679 923c 7cc8 133e ddf0 163e
000000f0: 8a06 ac3d 19d9 813e 9b7e 733d a66e a9bd
00000100: f433 5a3d 432c 883e 6ce4 8a3d 6195 abba
00000110: ba28 b63d 0416 68bc 8f69 2c3e 4696 b93c
00000120: 1cfd 2cbe 6c1d 503e 5e7b 8d3e 907a 38be
00000130: cc4f 39bd cbda 56be 23f3 423d 7072 a9bd
00000140: 2de9 02bd e99a 01bd 0f6c ca3d c9ea ca39
00000150: cf16 173e 7103 b23d 27bc fc3d 2d43 f6bd
00000160: 288f 753e 2ef5 03bc cc99 933d 3845 803e
00000170: b891 903e 994c 0cbe 3da6 31be 188b 29be
00000180: 42e3 073e fd10 863e beef 93be 8690 ae3d
00000190: 9ee9 233e 4f0c 5c3d dc2f 713e 7644 9a3e
000001a0: 9471 36bd e9af 6c3d 9f08 93bd b0db a23d
000001b0: 01d4 53be 6066 373e ef8d 17be 849f 833e
000001c0: 1f4c fbbc 8c90 0fbe 432a 543e e1a2 1bbe
000001d0: 04f3 383e 2176 b2bd bf1c dfbd e2f7 efbd
000001e0: 566c 5fbe 000f eebd 6040 153e ca43 17be
000001f0: 3cb0 0abe 359b 333e 5373 2abb da60 1dbc
0.2776273 0.13428621 -0.21433477 -0.27575582 0.2615747 -0.28648007 -0.041701265 0.15434332
-0.24256311 0.012429828 -0.14898768 -0.087866575 0.19228873 -0.25916335 -0.051639277 0.14560437
-0.10012571 -0.20383745 -0.17915873 0.0670592 0.25309294 -0.25531447 -0.272086 -0.09137011
-0.22739823 -0.23924194 0.21421081 0.28032586 -0.13585621 -0.17008856 -0.12312507 -0.1450994
-0.14630005 -0.29117426 -0.13046955 -0.10605881 0.026183255 0.13222316 -0.0533603 0.057978753
-0.26320308 -0.1472485 0.015943684 -0.046405263 0.22585747 -0.051147435 -0.27586505 -0.22646599
-0.07785316 -0.10286837 -0.2587084 -0.27351114 -0.25277892 -0.0865084 0.2544939 -0.26180717
-0.1861525 0.017880362 0.14431947 0.1474032 0.08399685 0.25360945 0.059446912 -0.08273058
0.053272203 0.2659627 0.06781849 -0.0013090783 0.08894487 -0.014165405 0.16837142 0.022654664
-0.16893429 0.20323724 0.27633184 -0.18015504 -0.045242116 -0.209819 0.047595154 -0.0827378
-0.031960655 -0.031641874 0.09883892 0.0003870337 0.14754795 0.08692063 0.12340575 -0.120245315
0.23980391 -0.008054061 0.07207069 0.2505281 0.28236175 -0.13701095 -0.17348571 -0.16556966
0.13270286 0.26184836 -0.28893846 0.085236594 0.16007087 0.053722676 0.23553413 0.30130357
-0.04454191 0.05778495 -0.07179379 0.07952058 -0.20686342 0.17910147 -0.14800237 0.25707638
-0.030675946 -0.14019984 0.20719247 -0.15198852 0.18061453 -0.087139376 -0.10894155 -0.11717202
-0.2181867 -0.11623955 0.14575338 -0.14771953 -0.1354379 0.17539676 -0.002600868 -0.009605611

layer1.weight f4 [32, 128]
00000000: 22b2 6abd 9121 543d 5ccc 903d d076 38bd
00000010: bbaf 83bd 9942 94bc fe80 aa3c 650a a9bd
00000020: a254 26bd f091 89bc 600a 5f3d 053b ecbc
00000030: bd25 d3bc 576e 863d 8be0 733d 071b 9fbb
00000040: 18ce 0ebd b357 83bd 0891 6a3d bc30 423d
00000050: 5b35 9d3c c72b 96bd a831 c9b8 0ed7 77bc
00000060: b75d d23c 078f d8bc f6a9 2e3d 0d74 44bd
00000070: 0d85 6bbb f910 903d 184a 3bbd d234 6c3d
00000080: 13b1 0bbd 627e 5fbd 679a 2d3d fe9e aabd
00000090: e748 f33c 2d7d 8f3d b303 863d bf9e acbc
000000a0: b1b9 a2bc 3500 aabd 8fcd 2a3d 12d6 6bbd
000000b0: a74e 963d a470 8ebd 0811 23bd c8af a3bd
000000c0: 6b6a 35bb b4b6 ebbc fa4c d43c f000 b73c
000000d0: 97c0 043d 8621 e7bc 324d c43c dffc 9d3d
000000e0: 43ea 133d 70c9 f0bc 52f1 ae3d b432 e13c
000000f0: 7651 8ebd 5f0b bfbc 3639 82bc ac01 56bd
00000100: bd49 89bd 774b 30bd 6bb4 80bd 2e5a 2c3d
00000110: 3346 893d 5d6c 423c f578 a7bd 904c d73c
00000120: ebab 5abd 52d0 a8bd c253 333c b2e8 9cbd
00000130: 23cd 9fbd ec61 c83c d178 70bd 1ff1 8b3c
00000140: 600d 27bd 04c3 843d 7646 b0bd 5be4 6f3c
00000150: e689 913b bca7 91bd f535 8ebd 7ce7 cb3c
00000160: 910f a1bd 2632 89bd d30f 9bbd bf5b 42bc
00000170: a826 d13c 20cf b33c bcad 55bc a028 3b3c
00000180: 57d2 14bc 83ed a03d 7480 413d 740e 96bd
00000190: c918 3f3d 3278 d53c 090a 49bd 0f0b 0b3d
000001a0: 86cb 16bc 5223 553c b144 43bc f1c1 a9bc
000001b0: 3c2b 8d3d e9cc ac3d 0108 2ebd 0762 2ebd
000001c0: ae04 8abd a54a 8bbd 6c16 193d dc3c 8c3d
000001d0: dc6f 5abc 7e94 3d3c ad71 bcbc 2cc2 873d
000001e0: 86ce 02bd 191f 2fbd 1ec3 3dbc 0b0e 02bd
000001f0: 5a3e 6b3d ae66 b23d a40a b43d 3925 a0bd
00000200: 98ca 57bd dfef afb9 c809 fa3b 3b22 f83c
00000210: fc61 963c 3454 b1bd 3f1c a1bd 83fc 9fbd
00000220: 794c 7bbd f5e4 823d 92ef f53c 6e3d 223d
00000230: 2547 aebd a07b 84bd 3a71 e7bc 81c6 9fbd
00000240: fc86 98bd 51d3 6bbd 3391 763d a03a d23c
00000250: cb6a 98bc 7c67 f33b 3ba3 f83c 18ec 42bd
00000260: 1b74 96b9 2add ba3c fe33 9cbd 68cf 9f3d
00000270: 0426 64bd ee47 acbb a39c 52bd bbab bb3c
00000280: d697 4f3d 15d1 20bd 57e1 8a3d e630 bebb
00000290: 11fc 86bd a305 ac3d 4e5b ecbc 4cd7 6dbd
000002a0: a7ec ae3d 71c7 543c b9f6 9cbd 1d34 7f3d
000002b0: df4f fabb 4af7 e33a f6cb 06bc afed 97bd
000002c0: 20bc e1bb c055 003d 18d4 d13c dde1 033d
000002d0: 64de ef3c 2395 0abb 8cb5 2dbd 0c00 13bd
000002e0: df0c 11bc dd3b 453d 8815 a9bd ea71 b3bd
000002f0: 302d 0fbd e803 a23d 79a0 1fbd 1d47 f33c
00000300: b075 033b 3158 bdbc da3c 2b3d c83d a9bd
00000310: 81c0 883d adc9 5ebd 860d 743d bd79 f3bc
00000320: 974c 543d e4cc 623d 510b 923d 69b8 e13b
00000330: 9dfb 883c f0e6 823b e4ad 723d 00f2 0a3d
00000340: 6015 e63b 83a5 38bd 1381 8fbd b336 ea3c
00000350: 9302 703d 2f8b 923d db22 823d fc01 533d
00000360: d789 4abc face 6dbc 32fa 113c 3667 923d
00000370: e031 97bc 106d b2bd 73e8 8a3d 8231 893d
00000380: 4314 313c 0608 243d c809 19bc 706d 3b38
00000390: 9bf2 aabd 066d ba3b 8924 b33c 9eeb 99bd
000003a0: fc6e aebd 7129 6c3d d663 743c 9973 1abc
000003b0: 161e 973d b2e8 a4bd 4253 833c 994e a3bd
000003c0: 344d ba3b fd3c 9fbd bfd9 3f3d f09b 83bc
000003d0: 86ad 3ebd b0e8 cd3b 8fa3 103d 8597 3bbd
000003e0: 85b6 8abd 5737 b23d f620 a13d 0dea b5bb
000003f0: 2317 24bc 8c80 053d 1358 a5bc 3a95 233d
-0.057298787 0.051789824 0.070702285 -0.045035183 -0.06430002 -0.018098162 0.020813461 -0.08253936
-0.040608056 -0.016793221 0.054453254 -0.028836736 -0.025774831 0.065640144 0.059540313 -0.004855517
-0.034864515 -0.06413212 0.05726722 0.047409758 0.019190481 -0.073325686 -9.593676e-05 -0.015126957
0.025679452 -0.026435388 0.042642556 -0.047962237 -0.0035937459 0.07034487 -0.04572496 0.05766756
-0.034104418 -0.054563887 0.042383578 -0.083311066 0.029697848 0.07006297 0.06543674 -0.02107179
-0.019863935 -0.08300821 0.041699942 -0.0575772 0.073392205 -0.06955078 -0.039811164 -0.07992512
-0.0027681838 -0.028773643 0.025915612 0.022339314 0.03241023 -0.028214227 0.02396259 0.07714247
0.03611208 -0.029392928 0.08542122 0.027489997 -0.06949131 -0.023320852 -0.01589642 -0.05224769
-0.067035176 -0.04304072 -0.06284412 0.04207819 0.067028426 0.011866656 -0.081773676 0.026281625
-0.05338661 -0.08242859 0.010945262 -0.076615706 -0.078027986 0.024460755 -0.05870897 0.017082749
-0.04078424 0.06482509 -0.08607189 0.0146418465 0.0044414876 -0.07112071 -0.06943885 0.024890654
-0.07864297 -0.06699018 -0.075713776 -0.011862694 0.025531128 0.02194935 -0.01304191 0.01142326
-0.009083352 0.07857802 0.047241643 -0.073269755 0.046654496 0.02605829 -0.049081836 0.033946093
-0.009203797 0.013008909 -0.011918233 -0.020722361 0.06893012 0.08437521 -0.042488102 -0.042573955
-0.06739174 -0.06801347 0.0373749 0.068475455 -0.013332333 0.011571048 -0.023003424 0.06628832
-0.031935237 -0.042754266 -0.011582164 -0.031751674 0.05743251 0.08710991 0.08791092 -0.078196
-0.052683443 -0.0003355732 0.0076305605 0.03028976 0.01835727 -0.086586386 -0.07866716 -0.07811835
-0.061352227 0.06391326 0.030021463 0.039609365 -0.085096635 -0.06468892 -0.028252233 -0.078015335
-0.07447621 -0.057574574 0.060197067 0.02566272 -0.01860561 0.007428108 0.030351272 -0.047588438
-0.00028696735 0.022810537 -0.07627104 0.078032315 -0.055700317 -0.005257598 -0.05141891 0.022909036
0.05068191 -0.039261896 0.067812614 -0.005804169 -0.065910466 0.083995126 -0.028852131 -0.05806665
0.085412316 0.012987004 -0.07664246 0.06230556 -0.007638916 0.0017392423 -0.008227339 -0.074183814
-0.0068888813 0.031331778 0.02561383 0.032197822 0.029280849 -0.0021146021 -0.042409465 -0.035888717
-0.008853166 0.048152793 -0.0825606 -0.08761962 -0.034955204 0.07910901 -0.038971398 0.029696995
0.002005916 -0.023113342 0.04180608 -0.08263737 0.06677342 -0.05439155 0.05958321 -0.029721135
0.051830854 0.05537118 0.07131065 0.0068884385 0.016721541 0.003994815 0.059247866 0.033922195
0.007021591 -0.04507972 -0.07007041 0.028590536 0.058596205 0.071554534 0.063543044 0.051515564
-0.012361965 -0.014514679 0.008909749 0.07148592 -0.0184564 -0.08712208 0.067826174 0.06698896
0.010808053 0.040046714 -0.009340711 4.4686196e-05 -0.083470546 0.005689266 0.021868007 -0.075156435
-0.08517262 0.05765671 0.014916381 -0.009426975 0.07378785 -0.080521956 0.016030911 -0.07973976
0.005685473 -0.077753045 0.04683852 -0.016065568 -0.046552204 0.006283842 0.03531223 -0.045798797
-0.06773094 0.087019615 0.07867615 -0.0055515827 -0.010015282 0.032593295 -0.020183599 0.039937235

layer1.bias f4 [32]
00000000: 985a 753d e9ca 8e3d b8af 67bd 9ba4 9d3d
00000010: 4381 75bd 949c 873d c338 a9bc 0fc8 97bd
00000020: 6f4d 383c 5e21 3dbb ac63 88bc 8a2f 053c
00000030: 20dc b43d 0b92 2ebd 0137 213d d04d 293d
00000040: 29b2 e9bc c103 53bd 0b3e 4fbd 1bf9 0a3c
00000050: c3ac a63d 7ce1 aabd 2e98 85bd 97c8 a0bd
00000060: e0d7 ab3d eeca 5fbd a978 1e3c a8a2 8d3d
00000070: ce11 a33d 0617 703d e66e 8abd 92da 80bd
0.05990085 0.06972296 -0.056564063 0.076974116 -0.059937727 0.06621662 -0.020656949 -0.07411205
0.01124893 -0.0028859 -0.01664909 0.00812901 0.08831048 -0.042619746 0.039359096 0.041333973
-0.028527336 -0.051517252 -0.05059628 0.008482243 0.081384204 -0.08343789 -0.065231666 -0.078507595
0.08390784 -0.05463689 0.009672322 0.0691579 0.0796238 0.058615707 -0.067594334 -0.06291689

layer2.weight f4 [8, 32]
00000000: 6e44 0dbe b993 debb 9047 223e fc36 fd3d
00000010: 9fe4 2e3e a9bc 2a3e 835b fb3d 665c 333e
00000020: d4a1 95bc c0f8 febd 6970 02b9 9313 3a3c
00000030: 93e1 f33d a7cc 323e e942 e33d 89b7 f73d
00000040: 8bbe 14be 4d00 323e 7e11 083a e4ef 623b
00000050: e406 003e dd4e 0bbe bb2b f8bc 6696 a33d
00000060: 8d21 2ebe d4c2 1c3d 512a 4e3d 3ee4 d63c
00000070: 7b12 ffba d662 053e 77d9 7fbd 4548 2cbe
00000080: a596 51bd 97dc 71bd af51 19bd ab78 c23d
00000090: fe66 87bc 2a61 86bd 84c9 19be 5ce9 47bd
000000a0: 2fa8 d4bd c061 07be c098 b23d 5b7f 85bc
000000b0: ea0c c63d 1122 b4bd b7be 2a3e cb09 d63d
000000c0: ff91 ddbd 02bc 73bd 29e1 7ebc 1f0f 213e
000000d0: 3709 5b3b 2af7 873d 05af d03c b666 b03d
000000e0: 6d4a 2d3e bfda abbd 7ac3 733d ab3b bcbd
000000f0: a239 73bd 35e2 213e 18ce f7bd 4355 7a3d
00000100: c302 0abe 9c53 4f3d 74af fc3c 9332 473d
00000110: 617a 10be b907 f63c 2bf4 47bc d32a b1bd
00000120: b226 0b3e 3b43 b33d a2fb a43d bdd8 2d3e
00000130: 06f6 13be a747 a63b 25fa edbd 3432 d7bd
00000140: 2122 4839 d564 1c3e 3ffa f53d 2cee 193e
00000150: 24e4 483c 1aa5 953d aa2e cfb6 731d 323e
00000160: f113 dd3c 1f9d 37bd c25c 14be b41f 25be
00000170: 4740 163e 2fee 33be 31ec 68bc ca35 cdbb
00000180: 37c0 1cbe d5b8 e33d 67aa fc3d 1673 233e
00000190: c54d 76bb 2882 efbc ad2c 8ebd 7aef 25be
000001a0: 225b b83a e9d3 6c3d 9668 d03d 6476 25be
000001b0: 60b3 28be 98e6 8f3d 8485 073e eb2d b53d
000001c0: c908 fcbd 588c 9fbc 28db 4fbd 7c0d 253e
000001d0: c0aa bc3b 49e7 e0bd 9d02 f9bd 557b eebd
000001e0: b4a2 28be feaa 34be db64 383c 79c3 f6bd
000001f0: c9cc bfbc 8077 df3d 2a58 57bb 3837 22be
00000200: f3df f3bd f78d ae3c e9f9 95bc 51dd dc3d
00000210: 89c5 f2bd 1578 273d 786c 6d3d 9337 243d
00000220: e6a6 5b3c ebb7 1b3e 9682 debd b23a 51bd
00000230: dfbf d03d 2349 0f3e ec27 7abd b228 343e
00000240: 224c c6bd dc92 a8bd 3461 c2bd c1c7 83bc
00000250: 48fb acbd ee50 483d c2f2 083e d2f2 96bd
00000260: 77d2 bf3d ddfb 5bbd 858c 0a3e cb42 993c
00000270: 9240 303e 4440 eabc 8b6c 3dbd 6236 7c3d
00000280: 833e db3c e473 88bd 7563 db3d 2e88 d33d
00000290: 124c 01be a2bb f73d 471a 1b3e 9778 1e3e
000002a0: df5a babd 07c6 2e3e bce9 fabd d3f8 b3bd
000002b0: 1426 ba3d 36b2 c83d f899 7dbd 2a1e 23be
000002c0: e127 e03c 5d15 1fbe 9c89 9c3d e5dd 8c3d
000002d0: 48ab f9bd 176a 173c 79f0 aabd 467c 323e
000002e0: 2b09 53bd 02c5 0dbd ced8 ee3d 254c 2d3c
000002f0: 6bec ac3c 28ee a7bd b08a 513d 13c1 fe3c
00000300: 457e a73d 8dbb 223c b185 6fbd 515d 0cbe
00000310: a536 5b3d f2f4 2d3e b198 13bc b457 ceb8
00000320: ca8e 01be f20e c63d f629 8f3d 9fbe ca3d
00000330: 996b fb3c 6971 c0bc ca38 93bc 400c 66bd
00000340: 0d57 91bd cfbf 963d a2d3 eebb 01a3 2d3e
00000350: fb4c 253d 9eb3 4c3d 8701 6b3d 6074 333e
00000360: 6a03 933d 1996 d83d 5a2f 29bc ab0e 3ebd
00000370: 4d2c 07bd e757 aa3d cbb4 b6bd 9c7f 8fb8
00000380: 4ab9 203e 1175 2abe eccf 0c3e f5a4 2dbe
00000390: f9b0 063e 8b5f d53d 0f67 2bbe d074 51bd
000003a0: d01f cbbd f88a e13d e4e5 71bd 798a 953d
000003b0: c383 fd3c b292 093e 6360 0b3d db21 45bc
000003c0: be75 a93d 0d0c d3bd 6351 ac3b a18d fb3b
000003d0: e7bd 89bd fa71 2fbe ce00 20be f252 2d3e
000003e0: d1de 25be 7f05 cdbd cddf 103e 3fee 01be
000003f0: 2f97 3abc 8bb7 5e3d f701 07bc 265c d4bd
-0.13795635 -0.0067925123 0.15847611 0.12364003 0.170794 0.1667353 0.12273314 0.17515716
-0.018265642 -0.12449789 -0.00012439642 0.011357206 0.11908259 0.17460881 0.110967465 0.120955534
-0.14525811 0.17382927 0.0005190595 0.003462785 0.12502629 -0.13604303 -0.03029429 0.079876706
-0.17004986 0.03827174 0.050333325 0.026231881 -0.0019460464 0.13025984 -0.06246325 -0.16824444
-0.051169056 -0.05904826 -0.037431415 0.09495672 -0.016528603 -0.06561501 -0.15018278 -0.048806533
-0.10383641 -0.13220882 0.08720541 -0.01629608 0.09670432 -0.0879556 0.16674314 0.104510866
-0.10818862 -0.05950547 -0.015556612 0.15728424 0.003342224 0.0663894 0.02547408 0.086133406
0.16922922 -0.08391332 0.059512593 -0.09191068 -0.059381135 0.15808947 -0.12099856 0.06111647
-0.13477616 0.050616845 0.030845381 0.048632216 -0.14109184 0.03003298 -0.01220421 -0.08650746
0.1358898 0.087530576 0.08055808 0.1697721 -0.14449319 0.0050744596 -0.11619977 -0.10507622
0.000190862 0.1527284 0.12010621 0.15032262 0.012261424 0.07306881 -6.174513e-06 0.17394046
0.026987048 -0.044827577 -0.1448851 -0.16125375 0.14672957 -0.17571329 -0.014216469 -0.0062625157
-0.15307699 0.11119238 0.12337189 0.1596187 -0.0037582975 -0.029236868 -0.06942115 -0.16204634
0.0014065246 0.05781928 0.10176198 -0.16158444 -0.16474676 0.07026404 0.13234526 0.08846649
-0.12306363 -0.0194761 -0.050746113 0.16118425 0.0057576597 -0.10981614 -0.121587016 -0.116446175
-0.16468316 -0.17643353 0.011254515 -0.12049002 -0.023413079 0.10911465 -0.0032858946 -0.15841377
-0.11907949 0.021307928 -0.018307643 0.107844 -0.11854083 0.040886004 0.057964772 0.040092062
0.013406491 0.15206878 -0.10864751 -0.051081367 0.101928465 0.13992743 -0.06107323 0.17593649
-0.0968249 -0.08231136 -0.09491196 -0.016086461 -0.084463656 0.048905306 0.13373855 -0.07370533
0.09366315 -0.053706992 0.13530166 0.018708607 0.17212132 -0.028595097 -0.046246093 0.0615753
0.026763206 -0.066627294 0.10712329 0.103287086 -0.12626675 0.12096335 0.15146743 0.15475689
-0.090993635 0.17067729 -0.122516125 -0.08787694 0.09089294 0.09799616 -0.061914414 -0.15929475
0.027362766 -0.15535493 0.076434344 0.068782605 -0.121908724 0.009241602 -0.08346648 0.17430219
-0.051522415 -0.03461171 0.11662446 0.010577236 0.021108827 -0.081997216 0.051157653 0.031097924
0.08178381 0.009932411 -0.058477107 -0.13707472 0.05351891 0.1698797 -0.009008572 -9.8391814e-05
-0.12652126 0.09670819 0.06990425 0.09899639 0.030690955 -0.023491578 -0.017971415 -0.056164026
-0.07096682 0.07360803 -0.007288412 0.16956712 0.040356617 0.049975984 0.057374503 0.17524862
0.071783856 0.10575504 -0.010326231 -0.046400707 -0.033001233 0.08317547 -0.08921202 -6.8425405e-05
0.15695682 -0.1664622 0.13751191 -0.16957457 0.13153447 0.10418614 -0.16738532 -0.05113679
-0.09918177 0.11012834 -0.05905713 0.07301802 0.030946618 0.13434866 0.03402747 -0.012031998
0.08274411 -0.10305033 0.0052587255 0.0076767956 -0.06725674 -0.17133322 -0.15625307 0.16926172
-0.16198279 -0.10010814 0.14147873 -0.1268854 -0.011388584 0.05437426 -0.008240215 -0.103691384

layer2.bias f4 [8]
00000000: 0c46 57bd 87b3 f23d 3d94 f2bb a4cc 393d
00000010: 8b16 973d 0dc2 43bd 389d 003e 50b2 e3bd
-0.052557036 0.118506484 -0.0074029253 0.045361176 0.073773466 -0.047792483 0.12559974 -0.11117995

Output.weight f4 [2, 8]
00000000: d212 883c 65a9 2dbc 2ad4 18be 55e4 87be
00000010: 9e44 6fbe 8f94 a23e 084b 5dbe 5176 643e
00000020: 36e5 adbd e013 c03d 2e50 a9be c118 14be
00000030: 9ea2 8f3e 81e9 9fbd 16ec 22be 68e4 203e
0.016610537 -0.010599469 -0.14924684 -0.2654139 -0.23366019 0.31753966 -0.21610653 0.22310759
-0.08490984 0.09378791 -0.33068985 -0.14462568 0.28053755 -0.07808209 -0.15910372 0.1571213

Output.bias f4 [2]
00000000: d798 303e fd08 babd
0.17245804 -0.09083746
