DQN_scripts/Checkpoint/DQN_beta_new_model.pth (torch, 91901 bytes, 8 tensors)

Input.weight f4 [128, 11]
00000000: 9d69 47be 7a8c a6bd be3a f93c c5c7 653e
00000010: fa97 623e 012a 223d 6f17 513e be6c 133d
00000020: 070e 423e 8db4 49be 526c 273e 8974 273e
00000030: 92e6 98be 43a4 893e aeef a93d 32e2 2fbd
00000040: ba49 643e 583b 91bd 53b9 98be 5cd4 f9bd
00000050: 61d4 443e 5e56 87be 6b84 3dbd f9b9 993e
00000060: f948 93be 3e87 cfbd fdd9 aa3d 6900 873e
00000070: 4260 443e 6faa 87bd 9bfd 923e 931e 133d
00000080: 79e6 68be aa62 a0bd f7c6 96be 18ce eb3d
00000090: b2f3 2abe 7782 cabc ae84 ecbd f256 3c3e
000000a0: 9639 8dbd 26c5 c7bc a0fa 66be e18d 0e3c
000000b0: ae5d 46be fb2b 7fbd 4f86 793d 07cd 6ebe
000000c0: 14e1 8bbe 2888 323e 2b5e 19bd 8d3c 753e
000000d0: 9b95 81be 0450 823e 2993 1bbd 7101 513e
000000e0: 08ab 723e 7e41 4c3e 581d 70bd d61d 2f3d
000000f0: 9e60 94be 8a21 96be 5b68 1abe 2148 3a3d
00000100: 3ff9 563d 919d 903e 3247 6f3c b437 013e
00000110: 7778 d83d bcc9 03be 31c8 8bbe 4ffc 773e
00000120: b9b3 833e b787 2abe 9f25 393e 3b1a 0f3b
00000130: 526c 23be 3e3f 643d e6fd 433c f5ee 993e
00000140: 5573 2e3e 08c9 21be f502 d13d a32a 823e
00000150: d7b6 97be b212 bf3d 24e0 08bd 42e7 f6bd
00000160: bbc5 753c 4e3c 863c 6b06 6abd 98ff c1bd
00000170: 45fc 223e 85d1 3d3e 2af1 1abe ae95 2b3e
00000180: b8c9 17be 8eaa 8a3e 45e8 573e 3072 483e
00000190: 8fa0 803e 4398 38be 66ff 35be f0f9 6fbe
000001a0: 4cba 3a3e 2fc1 8a3d 11f4 3abd 8efa 133e
000001b0: 1a3f d63d 1fb7 263d be92 91be 4d83 2c3e
000001c0: 5490 ab3d ae54 23be 6c5e 27bc 3c9a 2dbe
000001d0: 6c6f 163e c719 e3bd 71f1 89be 3f3d 493d
000001e0: a617 003e 71db 5a3e 60f5 23be 231c 363d
000001f0: af90 76bd 88ea 523e 2bfb 783e 5290 fcbc
00000200: 807c d8bd fff0 233e 3f31 5dbe 1506 bdbd
00000210: 5248 913e 3c2f f4bd b3cf a03d ddf0 023e
00000220: 7162 18bc 1495 19ba ac32 5a3d 7ba5 043e
00000230: affb 7f3a f322 883e 5ce7 09bd 692e 553e
00000240: 30b3 88be 1fbb d93d ec56 943e 3369 01be
00000250: d982 663e bbf5 80be 2f2a 943e 8948 5d3e
00000260: ec1f 89be 8f6b 363e dc07 8f3e de12 703e
00000270: 42a5 0abe ab8e 753e 52e9 2bbe 15d9 543e
00000280: 0e7d 7d3e 6ff7 7f3e e963 823e 48f7 703e
00000290: c127 963e a8f7 363e 015b 2d3c 6717 1cbe
000002a0: 806e 88be 90f0 8b3d a3a6 bd3c 01ff a23d
000002b0: 9447 633e d53e 11bd 986b 22be 1904 d5bd
000002c0: 156d 4d3d 8dbc 3cbd e917 96be 79ba 38be
000002d0: 72cf f13d bad1 393e 06ae 4bbe 6b99 7b3e
000002e0: 2aed fb3d 0e86 933e fd2e 89bc 48eb 8e3e
000002f0: 3c2e c33c d33f 84be 0bd4 2ebe 45df 18bc
00000300: 50c4 3ebe 82d3 20be ee26 903e e891 7a3e
00000310: 0da9 803e c2c3 6fbe 0832 5abe 81a4 36be
00000320: 69a6 583c 3f3e f9bd 3706 46be cf6f 87be
00000330: 6e23 1f3e 1941 963e 9579 853d feb4 7cbd
00000340: 2b10 473d 2a01 1b3e 4f73 813e 87ec 823c
00000350: b6e8 7cbe 27f3 5cbd d831 e43d 7e38 d0bd
00000360: 8321 8b3e 2ab6 7e3d c3d5 4cbd 7ce3 153e
00000370: 0128 a13d d64d c23c 5008 493e 42cc 0c3e
00000380: 184e 4ebe 74b2 0dbe 96fc 083e a004 833e
00000390: 7afe 52be 4ce5 593e e17b 59bb 0699 89be
000003a0: f499 8e3e 7e57 c63c 4e3a 5cbe 57a7 06bc
000003b0: 819b 5bbc b990 4c3e fd05 b3bd ab19 813e
000003c0: 44e3 403d 7e4c 2cbe b2bf 143e 5f23 8fbe
000003d0: 4404 42be 0cb4 81be ff6e 923e 8f45 15be
000003e0: 1ac2 6bbe bffc 94be 13c4 3d3e aa4f 73be
000003f0: a05c fa3d b59f 5c3b 8724 713d 45b2 79be
-0.19473882 -0.081322625 0.030423518 0.22439487 0.22128287 0.03959084 0.20419095 0.035992377
0.18950664 -0.19697781 0.16349915 0.16353048 -0.2986341 0.26883134 0.082976684 -0.042940326
0.2229375 -0.07091397 -0.2982889 -0.121987075 0.19221641 -0.2643308 -0.04626886 0.30024698
-0.2876661 -0.10133217 0.08342359 0.263675 0.19177344 -0.066243045 0.2870911 0.03591783
-0.22744168 -0.07831319 -0.29448673 0.11513919 -0.16694525 -0.024720414 -0.11548744 0.18392542
-0.06895749 -0.024386 -0.22556543 0.008700819 -0.19371673 -0.062297802 0.060919102 -0.23320399
-0.27320158 0.17434752 -0.03744332 0.2394888 -0.25309452 0.25451672 -0.03798214 0.20410706
0.23698056 0.19946858 -0.058621734 0.042753063 -0.28979963 -0.29322463 -0.15078871 0.045478944
0.052483793 0.28245214 0.014604377 0.12618905 0.10569852 -0.12869924 -0.2730117 0.24217342
0.25723055 -0.16653334 0.18080758 0.0021835703 -0.1595929 0.055724375 0.01196239 0.30065122
0.17036183 -0.15799344 0.10205642 0.25423154 -0.29631683 0.09329738 -0.033416882 -0.12055828
0.015000756 0.016386177 -0.057135027 -0.09472579 0.15916546 0.18536957 -0.1513106 0.16756317
-0.14823043 0.27083248 0.21084698 0.19574809 0.25122496 -0.18026833 -0.17773208 -0.23435187
0.18235129 0.06775128 -0.045642916 0.14451048 0.104612544 0.04070198 -0.28432268 0.16846962
0.08377138 -0.15950271 -0.010215383 -0.16953367 0.14690942 -0.11088901 -0.26942018 0.049130674
0.12509021 0.21372773 -0.16011572 0.044460427 -0.060196575 0.20597279 0.24314563 -0.030830536
-0.105706215 0.16009901 -0.21600817 -0.09229676 0.2837549 -0.11923072 0.078521155 0.12787195
-0.009300814 -0.0005858701 0.05327098 0.12953751 0.0009764982 0.26589164 -0.033667907 0.20818485
-0.2669921 0.10631394 0.28972566 -0.12637787 0.22510852 -0.25187477 0.28938434 0.21609701
-0.26782167 0.17814468 0.27935684 0.23444697 -0.13539603 0.23980205 -0.16788223 0.20785935
0.24754736 0.24996732 0.2546685 0.2353183 0.29327205 0.17867911 0.010580779 -0.15243302
-0.26646805 0.06832993 0.023150748 0.079587944 0.22195274 -0.035460312 -0.15861356 -0.10401172
0.050152857 -0.046078254 -0.29315117 -0.18039884 0.11807145 0.1814641 -0.19890603 0.24570243
0.12301095 0.28813213 -0.016746039 0.2791388 0.023825757 -0.25829944 -0.17073075 -0.009330575
-0.18629575 -0.15705684 0.281547 0.24469721 0.25128976 -0.2341452 -0.21308148 -0.17836191
0.013223269 -0.121700756 -0.19338308 -0.2645249 0.15540859 0.2934654 0.065173306 -0.061696045
0.048599403 0.15137163 0.25283286 0.015981926 -0.24698147 -0.053942826 0.111423194 -0.10167025
0.27174005 0.062185444 -0.050008547 0.1463756 0.07868958 0.023718756 0.19632077 0.13749793
-0.20146978 -0.13837606 0.13377604 0.25589466 -0.20604888 0.21278876 -0.003318541 -0.2687456
0.27851832 0.024211641 -0.21506616 -0.008218608 -0.013403774 0.19977082 -0.087413765 0.25214896
0.047091737 -0.16826054 0.14526251 -0.27956674 -0.1894694 -0.25332677 0.28600308 -0.14577316
-0.23023263 -0.2909908 0.18531828 -0.23760858 0.12224698 0.0033664529 0.058872726 -0.2438441

Input.bias f4 [128]
00000000: 2aec 8f3e 8d62 61be 74a2 6bbe 4fad 3dbe
00000010: cfa9 953e 3372 0c3e 8387 95be 7a1f 413e
00000020: 6458 b0bc 00a1 823e 7ad0 abbd 8bac 233e
00000030: de2d 21be 327b fd3d 5928 eebd 48cb 4f3e
00000040: 89d8 92be 9fd8 cabd 4d2e 93be 1a6f 61be
00000050: 70a9 3ebe 64c1 42be 8560 8a3e 330b af3d
00000060: 9ee3 8fbe f2db d73d aa90 bc3d b8cc 98be
00000070: d389 8fbe 8767 4a3e 850a fa3d 38b0 adbd
00000080: 8a8e 063d 9192 283e 8d0b 01be 5c07 b13d
00000090: 3a00 e4bc 218c 30be 36fa ebbb 36e0 ed3d
000000a0: 22ef 1c3e 0039 033d 4efe 563e 2048 92bd
000000b0: 1fbd 343e dc5e 543e ee5e fdbb b950 8cbd
000000c0: 525b efbd c8fd d43d 2845 50bd d1fb 20be
000000d0: 4ccf 12be fa97 0cbe 14af 83bd 9f06 8bbe
000000e0: de44 39be 3e2d 0ebb c2a8 20be b396 96be
000000f0: 26c8 903e e25e 923e 8ea8 c4bc de95 253e
00000100: bfb3 c33d 0a6b 583e 4135 d23d 5848 05bd
00000110: 42a2 8dbe 6b49 0f3e 30b9 6f3e 047a 5a3d
00000120: ffed 4d3e 47d3 febd e0a9 993e 57c2 63be
00000130: 321f 4c3e bc07 633e 19e8 953e 54c2 883e
00000140: bda3 6ebd 2783 82be 382e f53b 5d5a d43d
00000150: 73db 99be 3030 4a3d 1cd8 533e 1aa8 0ebe
00000160: b7b3 86be 6069 4f3e dfa5 07be 63a9 1bbe
00000170: bb72 4bbd 8d6a 8e3e 4a7e 923e 9dd6 6a3d
00000180: 131a 843e 0d2f 2abe ab8e 7a3e 4152 87be
00000190: 2a8d 843e db4c 00be 3d9f adbd c8fb 5c3e
000001a0: c5ac 54bd 9959 15be a877 16be f17d f0bd
000001b0: 5b25 373e e2e6 91be 65ba 1bbe 58e7 733d
000001c0: 1c5e 2cbe 6e2d 4f3e 73ae 2abe 56f6 283e
000001d0: 8050 993e d839 6fbe 02cf 653e 855a 18be
000001e0: 29dc 05be 57ed 903e 4218 94be bf56 71be
000001f0: 81a5 44be 22b8 cabc 073f 703e 4552 bcbd
0.28109866 -0.2201025 -0.2301119 -0.18523143 0.29231116 0.13715439 -0.2920495 0.18859664
-0.021526523 0.25513458 -0.08389373 0.15983789 -0.15740153 0.12377013 -0.116287895 0.2029239
-0.28680828 -0.099045984 -0.28746262 -0.22015038 -0.18619323 -0.19019085 0.27026764 0.08547058
-0.28103346 0.10539998 0.0920728 -0.29843688 -0.2803484 0.19766055 0.12209038 -0.08480877
0.03285078 0.1646216 -0.12602063 0.08643982 -0.02783214 -0.17240955 -0.0072014583 0.116150305
0.15325597 0.03203678 0.20995447 -0.07142663 0.17650269 0.20739311 -0.0077322638 -0.06851334
-0.1168734 0.103999674 -0.050847203 -0.1572106 -0.1433689 -0.1372985 -0.06429878 -0.2715349
-0.18092677 -0.0021694447 -0.15689376 -0.2941185 0.282777 0.28588015 -0.024006154 0.16170451
0.09555768 0.21134582 0.102640636 -0.032539696 -0.27662855 0.1399285 0.23410487 0.05333902
0.2011032 -0.12442642 0.30012417 -0.22242104 0.19933775 0.22170919 0.2927864 0.2671076
-0.05826162 -0.25490686 0.0074823163 0.10368798 -0.3005024 0.04936236 0.20687908 -0.13931313
-0.26308987 0.20255041 -0.13246869 -0.15201335 -0.049669962 0.27815667 0.28611976 0.057333577
0.25801143 -0.16619511 0.24468486 -0.26429942 0.2588895 -0.12529318 -0.08477638 0.21580422
-0.05192258 -0.1458496 -0.14694083 -0.117427714 0.17885344 -0.28496462 -0.15207823 0.0595468
-0.16832775 0.20232174 -0.1666811 0.1650022 0.2994423 -0.2336191 0.22442248 -0.1487828
-0.13072266 0.28306076 -0.28924757 -0.23568247 -0.1920376 -0.024746004 0.23461543 -0.09195379

layer1.weight f4 [128, 128]
00000000: 5359 2d3d 95fb acbd 5540 86bd 7eb3 d73c
00000010: 1c16 203d 3498 4a3c 3062 af3d a18d 663d
00000020: 8885 743d 1154 68bd fe0a 223d a254 39bd
00000030: 7f96 19bb 4fc5 b4bb 89bf 87bc fe06 833d
00000040: e358 6bbd b60e 9b3d d795 4e3c 2bde ef3c
00000050: a304 86bd 2b4a a23c 8790 763d 9a56 1bbd
00000060: b474 533d 4832 1e3d 5bcb 60bb ada9 abbd
00000070: 4ac4 4ebd a8a4 b3bc 2e7d 50bd 42f7 fabc
00000080: a22a 87bd f9cd 123d 39b8 a0bd c508 073c
00000090: 732b a63d a36c 3cbd 1968 40bd f878 07bd
000000a0: c89f 9f3d 92cb a6bc e405 06bd b90a 1fbd
000000b0: 92ca 81bc 13a8 323d 9578 a03d ab0f 193d
000000c0: e640 9c3d 2da5 31bc a666 e23c 034e 72bc
000000d0: 12d4 6f3d fe43 0bbd f830 82bd 0bf0 a83d
000000e0: 1661 7abd 7067 983d 62ff 293d 3d45 5139
000000f0: 20b4 a2bd b59b 243d acc4 64bd 8e4e 61bd
00000100: 4edf 863d b519 1e3d 9b3a b03d 6a27 82bd
00000110: 7f43 aabd 8743 b13c 7364 573d a6f0 903d
00000120: 1112 2a3d 13c4 833d 790e b9bb cc53 6b3d
00000130: d3de 68bd e6db 763b 73b5 d93c f47b b23d
00000140: 636f ac3d 70a0 80bc f64b 2a3d 7dcd af3d
00000150: fb03 1b3c 75c9 953d 7ab6 b1bc 824d b0bd
00000160: 386b 5abd 5019 aa3b 23b1 6abc f273 ae3d
00000170: 72b3 8bbd f2aa 82bd 1a99 583c 84b1 0fbd
00000180: bad9 493d 1e0b 3bbd 89b0 023d 0ee3 7bbc
00000190: 5f0a ee3c feae 5ebc e40f 973d 5158 3a3d
000001a0: e01b 5f3d 6bc2 1a3d 1682 803d f312 7ebd
000001b0: 9424 253d 83a7 233d 1ec3 633d ff55 94bd
000001c0: 34a1 a33d 520c b7bb d797 e53c d09b 8e3d
000001d0: 564e 543d f23b af3d 8a22 df3c 2728 413c
000001e0: 2228 453c d32a 28bd bc68 903d f707 4c3d
000001f0: cabb e23c 8e73 abbd 5ae7 e43c 26f0 66bd
00000200: 8ea2 9eb8 3f70 89bd 0f1c 753d ff71 c63c
00000210: e97c 0ebd e1d6 c03c 24f2 df3c b401 583d
00000220: 267b df3c 1fe8 323d 57c3 7cbd e182 14bd
00000230: 3eae a4bd 509a c43c d021 9e3d 51a6 a63d
00000240: 3a38 48bb 57b4 a33d 08d6 7d3d 9c51 1f3d
00000250: 77f5 91bb 9212 ea3c 75ae 65bd cc85 35bd
00000260: c988 4d3c 4104 28bd 2eba a93d 1d84 1dbd
00000270: 52ec 7cbd dc62 963d 2635 343c 2251 a93d
00000280: 286b 753d 294f 33bd 27bf 67bd a6b7 57bd
00000290: 25a4 8ebc 4203 8b3d e146 043d 89ad d1bb
000002a0: 3f3d b43d 292f 2e3d c68b 37bd b8ae c6bc
000002b0: 6135 8b3d 7257 a3bc 212d a03d deba 7abd
000002c0: 8d5e 1ebd 60e4 153d 41ac 7fbd a06e d1bc
000002d0: c0b9 7e3d 751b e5bc 673d a93c 09f4 62bd
000002e0: 5a0f a6bd 1047 31bd f4b0 26bd 29fb 773d
000002f0: 9e27 86bd 51a7 893d 563f aabd 6034 afbd
00000300: 07ed 1d3d eaf1 25bc bb41 9f3d 6fa2 f0ba
00000310: ada7 82bd ee2b f43c 2efe a83d 4974 2d3d
00000320: 70cf e9bb 2ed5 953d 83fe 89bd 5a1d 8c3d
00000330: 366e a2bc ae73 41bc a244 20bb 6265 a3bd
00000340: f2c4 30bd 13cf 863c 4630 503d d1fa 953d
00000350: 4ef9 daba 6d1b 863c fa0a d83c bf4b ac3d
00000360: 3038 3abd 25f9 09bd 85de 0fbd 39a7 50bd
00000370: 2adb 4dbc f691 0fbd d9c2 99bd 36e4 3fbd
00000380: 77c9 aabd f7d2 c9bb d9c2 10bd 7709 62bd
00000390: 93a8 363d 5ce4 253d 5b51 aebd bd5f 30bd
000003a0: e100 383d d706 763d 6168 83bd d86a ac3b
000003b0: 2380 143c 36a8 9cbd ead0 553d 3abd 0dbc
000003c0: dc15 8fbd da1e c5bb 12aa 5dbc 6494 683d
000003d0: 8ef6 3abd d298 013d b2b5 983d da0d 683d
000003e0: a550 bb3c a921 62bd 5117 56bd a5f0 af3d
000003f0: 0b96 69bd b47f 903d 9fd7 81bd f8f0 a03c
0.042321514 -0.08446423 -0.06555239 0.026330706 0.039083585 0.01236539 0.0856365 0.05628741
0.059697658 -0.056720797 0.039561264 -0.045246728 -0.002343565 -0.005516685 -0.016570823 0.06397818
-0.057457816 0.07571165 0.012608967 0.029280743 -0.06543853 0.019810757 0.060196426 -0.037924387
0.05162497 0.03862217 -0.0034300897 -0.083819725 -0.050480165 -0.0219291 -0.05090063 -0.03063548
-0.065999284 0.035840962 -0.07847638 0.008241837 0.08113756 -0.04600204 -0.046974275 -0.03307435
0.07794148 -0.020360742 -0.03272046 -0.038828585 -0.015843663 0.04361732 0.07835499 0.037368458
0.07629566 -0.010842604 0.027636837 -0.014789107 0.058551855 -0.03400039 -0.06356996 0.082489096
-0.061127745 0.07441604 0.041503318 0.00019957586 -0.07944512 0.040187556 -0.055851623 -0.055006556
0.06585561 0.038598735 0.08604928 -0.06355174 -0.08313655 0.021638645 0.05258603 0.0707715
0.041521136 0.064338826 -0.005647477 0.05745296 -0.056853127 0.003766769 0.02657578 0.087150484
0.08419683 -0.015701503 0.04157635 0.08584116 0.009461398 0.073138155 -0.021693457 -0.086085334
-0.053324908 0.0051910058 -0.014324459 0.085182086 -0.06821336 -0.063802615 0.013220096 -0.0350814
0.049279906 -0.0456649 0.03190664 -0.015373958 0.02905768 -0.013591526 0.07376078 0.04549438
0.054469943 0.037783068 0.06274812 -0.06202979 0.040318087 0.039954673 0.055606 -0.07242965
0.079897314 -0.0055861855 0.028026504 0.069633126 0.05183252 0.085563555 0.02723815 0.011789358
0.012033494 -0.041056465 0.070512265 0.049812283 0.027677435 -0.0837165 0.027942348 -0.056381367
-7.564305e-05 -0.06710862 0.059841212 0.02422428 -0.034787092 0.023539962 0.027337141 0.052736
0.027280401 0.0436784 -0.061709728 -0.03625763 -0.080410466 0.023999363 0.07721293 0.08137191
-0.0030551092 0.079933815 0.061971694 0.03889619 -0.0044543105 0.028573308 -0.05607458 -0.04431705
0.012544819 -0.04101968 0.08287464 -0.03845607 -0.06174881 0.07343075 0.010999 0.08267428
0.059916645 -0.043776665 -0.05657878 -0.052665375 -0.017412255 0.06787731 0.032294158 -0.006398861
0.08800744 0.042525444 -0.044811033 -0.024253234 0.067972906 -0.019939158 0.07821108 -0.061213367
-0.03866439 0.03659475 -0.062420134 -0.025565445 0.062188864 -0.027967194 0.020659162 -0.05540851
-0.08108397 -0.04328066 -0.0406961 0.06054226 -0.06550525 0.06721366 -0.083128616 -0.085549116
0.038556125 -0.010128478 0.07776209 -0.0018358956 -0.06379638 0.029806104 0.08251606 0.042347226
-0.007135324 0.073160514 -0.067379974 0.06841536 -0.019827943 -0.011807365 -0.002445497 -0.079783216
-0.04315657 0.016456163 0.050827287 0.0732323 -0.0016706379 0.0163705 0.026372422 0.08412885
-0.04546374 -0.03368487 -0.03512432 -0.050940726 -0.01256446 -0.03505131 -0.07507867 -0.0468485
-0.083392076 -0.006159182 -0.03534207 -0.055184808 0.04459436 0.040500984 -0.08511611 -0.043060053
0.044922713 0.060065117 -0.06416393 0.00526176 0.009063753 -0.07649271 0.05220119 -0.008651072
-0.06986591 -0.0060156407 -0.013529317 0.05678214 -0.04564529 0.03163988 0.07456531 0.056653835
0.022865603 -0.055207882 -0.05226833 0.08590821 -0.057027858 0.070556074 -0.063399546 0.019646153

layer1.bias f4 [128]
00000000: 79e6 46bd 815c f33c 2299 633d ce2a 933d
00000010: 3011 40bd 7556 96bd 4091 4b3d c6f0 2ebd
00000020: b6c5 1c3d 0833 9d3d fb9d 20bd 6260 83bb
00000030: 5f23 0abd d7ad 863c f7cc b0bd cae8 293b
00000040: f54f f23c dc2e aebc 801f 2a3c 1651 9ebd
00000050: 962b 393d 0318 b3bd d206 7e3d e9eb 993d
00000060: 81b0 8a3d bf7d 6dbc 7d35 bf3c 9659 56bd
00000070: 2f74 42bd 909b 073d 0756 08bd b4ff c23b
00000080: 1e16 cabc 7efc 28bd 81a2 b0bb 4b1c 553d
00000090: 58cc 543c 99de 563d fa25 063d 859d 2a3d
000000a0: 92f6 a0bd 4d2d 41bd f38f b13d b0f0 3c3d
000000b0: 39d2 783d 4937 b13d 4f12 72bd a554 a63c
000000c0: 3d23 2c3d d9f9 86bd 5c54 86bd ea78 833d
000000d0: 8881 4abc 3dc9 813d b377 90bd 4175 963b
000000e0: 98b9 89bd 2777 5a3c 1525 7c3c 1f47 953c
000000f0: 8fb3 93bd d81e 8ebd b612 1d3d 2b51 493d
00000100: 5f01 ca3b 16f8 0fbd 70fa 8bbd 0f6c 9abd
00000110: 3e3f dfbc 3599 05bc 5b33 303d 4d53 47bd
00000120: ccfb b23d d29d 833d 0c9d eb3c ceb7 bd3c
00000130: 95cf 933b d041 b83c 80b1 1f3d ac62 2fbd
00000140: aa45 1fbd a040 83bd 24ac a5bd 5dea 9bbc
00000150: 6307 3a3d b183 173d 80d4 733d 4073 843d
00000160: 00ff 6c3c 5f79 19bd 8c80 a73c 8aba a9bd
00000170: ba3a 873d 38e2 24bd 7415 46ba 62fc b73c
00000180: c435 83bd 0dce 34bd 4db1 47bc 4c48 cf3c
00000190: d22f 9bbc 8ef6 5e3d 8c29 b4bd 8c2c c2bb
000001a0: c8e9 8fbd 8e02 bbbc 4205 03bc f977 01bd
000001b0: 5b40 8a3d 9c14 5ebd d56e 7cbd d688 903d
000001c0: 40c8 93bd 22d9 5ebd 1ebf a43d ba0f b2bc
000001d0: effe 9f3d 1313 6b3c 58e8 a33d bc7b 6dbd
000001e0: 21a7 1cbd 340a 27bd 4c84 82bd e16a 273d
000001f0: fc00 7c3d 7fe6 41bc cc8c b63c 90cb 063c
-0.04855964 0.029707195 0.05556596 0.07185899 -0.04689139 -0.07340709 0.049699068 -0.04271009
0.03827449 0.07675749 -0.039213162 -0.0040092925 -0.03372514 0.016440315 -0.08632844 0.0025926107
0.029579142 -0.021262579 0.010383487 -0.0773031 0.045207582 -0.08744814 0.062018223 0.075156994
0.06771947 -0.014495312 0.023340935 -0.05233153 -0.047474083 0.03310734 -0.033285167 0.0059508923
-0.02466875 -0.04125642 -0.0053904657 0.052028935 0.0129881725 0.05245838 0.03275106 0.04165413
-0.078595296 -0.047162343 0.08670034 0.046127975 0.06074736 0.08653123 -0.05909949 0.020304034
0.042025793 -0.065906234 -0.06559059 0.06419547 -0.012359984 0.06337211 -0.07054081 0.0045916145
-0.06724852 0.013334072 0.0153897 0.01822239 -0.072119825 -0.06939477 0.038347922 0.049149673
0.006164714 -0.035148703 -0.068348765 -0.07540142 -0.027251836 -0.008154203 0.043017726 -0.048663426
0.08739433 0.06426586 0.02876141 0.023158934 0.0045108297 0.02249232 0.038987637 -0.04281871
-0.038884796 -0.064088106 -0.08089474 -0.019032652 0.0454172 0.036990825 0.059528828 0.06467295
0.014465094 -0.037469264 0.020447038 -0.08287533 0.06602998 -0.0402548 -0.00075562974 0.022459213
-0.06406739 -0.044141818 -0.012188268 0.025303029 -0.018943701 0.05443435 -0.08796987 -0.0059257206
-0.07027012 -0.022828367 -0.007996859 -0.031608555 0.06750556 -0.054218873 -0.061629135 0.070573494
-0.07215929 -0.054406293 0.08044265 -0.021736015 0.078122966 0.014347809 0.080033004 -0.05797933
-0.038245324 -0.040781215 -0.0637289 0.040873412 0.061524376 -0.01183474 0.022283934 0.008227244

layer2.weight f4 [32, 128]
00000000: 4c0d 253c 154b 1a3d f926 91bd 7788 41bd
00000010: 2b6a 3bbd 657c 113d 27cd 32bd 2746 3abd
00000020: 6c8d 70bd 5b0c 93bd 3535 2d3c a72d b03d
00000030: 60a3 a6bd a5d0 893d cbd5 c93c ff5d 953d
00000040: c555 9ebd 063c 42bd a1bb da3c 663e 803d
00000050: ec28 e83c 6e89 44bd af16 dd3b 4a5e a2bd
00000060: bbe3 a0bc 42cd 8ebd 01b6 4cbd 38ca a6bd
00000070: 7044 04bd 7605 00bd 824f b0bb 0805 a13d
00000080: 4e9f 1abb 4a31 413d 28f3 92bd 6ab7 013c
00000090: c95e 8bbd f609 21bd 7e6f 373c 0e25 87bb
000000a0: 0627 5fbc 6b1c 4abd 348a 7d3d 1877 a23d
000000b0: 4ca1 923d e46a 68bd 1052 1dbd 8bf1 b13c
000000c0: e40c e6bb 1be8 553d 8d5f 133c 64a4 393d
000000d0: 9dee 5db9 8e77 c8bc 9fbb a3bd 4767 a13c
000000e0: a4cf 9c3d 465c acbd cfe6 4d3d f2a8 2cbd
000000f0: fde7 91bd 838b ccbc 2b09 fd3c de3c 7a3c
00000100: 85a6 753d 7616 85bd 7a79 3e3d eb8e 8e3d
00000110: 97f6 943d b498 243d 514e ae3d 7db9 91bd
00000120: 503a 31bc f1d2 933a 508f 0fbd 750c a5bc
00000130: c589 0abd 1450 983b 6117 b1bc b942 37bc
00000140: cfca 1bbc 3385 b53b 9f79 613d 9eb3 aabc
00000150: ad1d 893d feca ac3d 5928 4a3d 947d 783d
00000160: e7d4 a73d d036 8dbc f5e5 9bbd f107 a73c
00000170: 28fc f73c ff63 813c 6bfa d83b 1cd1 eb3c
00000180: 5de1 293b e5df d5bb c2ad 143d b9c6 73bc
00000190: b380 da3c b31a 73bd f207 543d f598 acbc
000001a0: 4c1c a8bd 5ed6 0c3d 702c 4a3d 821e 04bb
000001b0: 35cb 61bd 6aac 7a3b 02ec a8bd f167 863d
000001c0: 9574 79bc c744 65bd 50fe 66bd f5d0 0ebb
000001d0: 0993 7e3d 5da6 213b 2755 80bd 64d3 11bc
000001e0: d16c 913b 4188 173d ae69 72bd 78c8 3fbd
000001f0: 2dd9 a03d 82a5 7a3d 3b0a afbd 676c 9fbd
00000200: 13ba f5bb 3cc0 76bc 28c4 46bc 9127 d0ba
00000210: f08d 903d 3489 04bd d79c 3a3a 7d5a 0fbb
00000220: 933c 123c 7883 97bd 4dde aebd 2ea6 9e3d
00000230: 74bb 9fbd 942a bebc 87e3 75bd df71 a33c
00000240: 1cb2 38bd 0636 95bd 8ef6 4f3c eb5f 213c
00000250: a3eb 9dbc efee 483d 49a5 8cbd 9a7c a5bd
00000260: fc70 28bd 58cb 75bd a359 5d3d 9fdb 98bc
00000270: 302c 34bd ce2b 953d d6a7 823d 94bd 683d
00000280: 7ce6 82bd 1e94 a33d 26ba 923d 9511 693c
00000290: 4399 ae3d 33f7 09bd 3193 41bd 1a09 ec3b
000002a0: 4e35 8dbd 850f 92bc 5dbd 2e3d 98e7 1d3d
000002b0: 33b9 56bd cddf 15bd ac10 a7bd 983f 883d
000002c0: 8fb4 5ebc df62 9abc aee3 bf3b 609b 373d
000002d0: a501 53bd 284a 203d 51cf 52bc ec81 65bd
000002e0: a14f 02bd f784 3ebd bda5 2fbd bce9 adbd
000002f0: 4ce9 98bc 1fe3 2dbd 57df 19bd 87ef 963d
00000300: c7f3 afbd 9b5b 4c3c 2ea9 4dbc d3fb 923c
00000310: 93be 55bb bac4 3cbd 817f 9f3c 7e4d af3d
00000320: ff2b f03a bc8d 453c 56be b0bd 1168 2abd
00000330: 7cc1 17bd 79bc 103d c915 483d 52a5 24bd
00000340: ebc3 e2bc 75f9 3b3d bbd6 a3bd 835a 86bd
00000350: 6430 abbd dfbc e638 9b27 16bc b299 af3b
00000360: 1a64 06bd 9ec2 963c d339 80bd 0ece 6c3d
00000370: d20d 2fbd ea09 a9bd 59e7 aa3b 6e82 24bd
00000380: 9223 8d3d 057a 9a3d c16f 53bd 8631 8abb
00000390: c91b 7b3d e89e 91bd b2b1 3dbd b70c c4bc
000003a0: 702b 4bbd f549 883d 1612 913d 5835 abbd
000003b0: ff63 143d f4e7 95bd 717f a73c 9b48 e43c
000003c0: 0040 8e3b 63c5 ae3c 9940 eebc e7bd 593d
000003d0: 1899 e23b 2cd9 9bbd 2ed0 c9bc afb7 263c
000003e0: 5866 823d 2cc9 92bd fb73 673d 31e7 fa3c
000003f0: b89a 27bd 7073 943d 6253 89bc fb03 523c
0.010073971 0.03766926 -0.070875116 -0.047249284 -0.045755547 0.035519022 -0.04365268 -0.04547706
-0.05872862 -0.07180091 0.010571768 0.086024575 -0.0813663 0.06729249 0.024638077 0.07293319
-0.07731203 -0.047420524 0.026700797 0.062619016 0.028339826 -0.047982626 0.006747089 -0.079281405
-0.01963984 -0.069727436 -0.04997826 -0.08144039 -0.03229183 -0.031255208 -0.005380572 0.07862288
-0.0023593488 0.047166146 -0.071752846 0.0079172645 -0.06805188 -0.03931614 0.011196015 -0.0041242903
-0.013620144 -0.049343508 0.06189938 0.079328716 0.07159671 -0.056742564 -0.03840834 0.021721622
-0.0070205797 0.052223306 0.008994949 0.04532279 -0.00021165093 -0.02447107 -0.0799477 0.019702567
0.07656792 -0.08416037 0.050268944 -0.042153306 -0.071243264 -0.024968868 0.03088816 0.015273301
0.05997326 -0.06498425 0.046502568 0.06960853 0.07273596 0.04018469 0.085110314 -0.07115457
-0.010817125 0.0011278075 -0.035048783 -0.020147542 -0.033822794 0.004648218 -0.021617593 -0.0111853415
-0.009508803 0.00553956 0.055047628 -0.020837601 0.06695113 0.08437155 0.049354885 0.060666636
0.08194905 -0.01723805 -0.0761222 0.020389529 0.030271605 0.015794752 0.006621649 0.028786235
0.002592168 -0.0065269344 0.03629852 -0.014878922 0.026672697 -0.059351634 0.05176539 -0.02106903
-0.08208522 0.034384124 0.049358785 -0.0020159786 -0.055125434 0.003824974 -0.0824814 0.06562794
-0.015225549 -0.055973794 -0.056394875 -0.0021792029 0.062151942 0.002466581 -0.062662415 -0.008900497
0.0044380208 0.036995176 -0.059182815 -0.04682204 0.07853923 0.061192997 -0.08546873 -0.07784348
-0.0074989884 -0.015060481 -0.012131728 -0.0015880932 0.070583224 -0.03235741 0.0007118708 -0.0021874004
0.008925575 -0.073981225 -0.08538494 0.0774654 -0.07799426 -0.023213662 -0.06003144 0.019951759
-0.045091733 -0.07285695 0.012693061 0.009849529 -0.0192774 0.04905599 -0.06867463 -0.080804065
-0.041123375 -0.060008377 0.054040562 -0.018659411 -0.043987453 0.07283746 0.063796684 0.05682142
-0.06391618 0.079872355 0.07164411 0.014225383 0.08525326 -0.033683013 -0.047259513 0.0072032334
-0.06894933 -0.017829666 0.04266106 0.038550943 -0.052422713 -0.036590386 -0.08157477 0.066527545
-0.013592853 -0.018845974 0.005855999 0.04482591 -0.05151524 0.03913322 -0.012866811 -0.056032106
-0.03181422 -0.046513524 -0.04288267 -0.08491847 -0.018665932 -0.042452928 -0.03756651 0.07369905
-0.08591419 0.012473012 -0.012552543 0.017942345 -0.0032614812 -0.04608605 0.019469978 0.08559702
0.0018323659 0.012057718 -0.08630054 -0.04160315 -0.037049755 0.03533599 0.0488489 -0.040196724
-0.027681312 0.045892198 -0.07999941 -0.065602325 -0.08358839 0.000110024346 -0.009164716 0.005358898
-0.032810308 0.018403348 -0.06261029 0.057813697 -0.04273779 -0.08253844 0.005215567 -0.04016345
0.0689155 0.07542805 -0.05162025 -0.0042173294 0.061305795 -0.07110387 -0.04631204 -0.023931844
-0.049601972 0.06654731 0.07083528 -0.08359784 0.036228176 -0.07319632 0.020446511 0.027866652
0.0043411255 0.021334356 -0.029083537 0.05315962 0.006915223 -0.076097816 -0.0246354 0.0101756295
0.06367177 -0.07167277 0.056507092 0.030627819 -0.040919036 0.072485805 -0.016763393 0.012818332

layer2.bias f4 [32]
00000000: dfc4 b3bc ba8e 993d 7246 a4bd c168 95bc
00000010: acd2 ad3b 3d3b f9bc 6b6b 56bc abf9 45bd
00000020: 305c 98bd bd5e 923c a469 34bd 70a1 53bd
00000030: a473 493c 81e0 83bd 533d 0a3c d691 473c
00000040: 75b7 913d 276e 86bd 8232 a7bd 24f9 0e3d
00000050: 64f1 af3d f32c 54bd 7731 0fbd 31d1 a23d
00000060: 2bc1 3a3c c4b7 3a3d 4c72 c83c 7074 fbbb
00000070: 68ed a0bd aa68 723c bf06 27bb 4f59 153c
-0.021944461 0.07497926 -0.08021249 -0.018238427 0.005304655 -0.030423755 -0.013087134 -0.048333805
-0.07439458 0.01786744 -0.04404606 -0.05166763 0.012295637 -0.06439305 0.008437472 0.012180766
0.0711507 -0.06563979 -0.081639305 0.034905568 0.085909635 -0.05180068 -0.034959283 0.07950056
0.011398594 0.04558541 0.024468563 -0.0076737925 -0.07857782 0.014795462 -0.0025486199 0.009115531

Output.weight f4 [3, 32]
00000000: 5900 d13d 0845 703d 96c2 8bbc 5b9f 913d
00000010: befd 0fbd 2138 bdbd 7e93 0cbd 09ac ad3d
00000020: 0636 2e3e 9014 fcbd 13ec eebc d40d 0e3e
00000030: 7936 2dbe a89a 423d b319 a4bd f223 903d
00000040: ffc2 29be 3ea7 b5bd f594 0abe 9eae a73d
00000050: 8a8a e9bc 72cc 41bd 37ec 0a3e 5864 ca3d
00000060: e1c8 1d3e 803e f23d 9119 28be 25d9 793d
00000070: 6c00 d6bc e101 5f3d 6837 293e 882d 233e
00000080: ee04 56bd cde4 4d3d b2f7 013e 2ac6 423c
00000090: ebe1 16be 16f2 293e 35aa debd 6924 dabd
000000a0: 9c9d 69bd 19e5 17be cffd d2bd a572 093e
000000b0: cd30 0abe 0729 043e 8f10 9abc 2fdd 27be
000000c0: 513f 51bd c080 97bd 11ea 2dbe c777 263e
000000d0: da4b 0c3e c367 11be 374a bbbc 2c9a 003e
000000e0: 71db a93c 689b 2cbe a379 e5bc a7db 7f3b
000000f0: 9744 1fbe 8fb1 2f3c 42e8 cfbd 3b26 283d
00000100: c8ad f4bd d414 d03b 9362 a4bc 9d35 7b3d
00000110: 3e34 243e e9df 243e c771 783d baa9 db3c
00000120: f05a 923b ac33 7b3d 30ca ecbd 912f 653d
00000130: 2287 053e 9297 033e 0501 673c 377d 6dbc
00000140: 4e98 bf3d 99d6 583d feba 29be b8b4 333e
00000150: 2ad6 b53d 0ff8 cf3d dcbd f6bd 4b54 083d
00000160: 5251 34bd 27ad a2bd c49a ecb9 f307 cdbd
00000170: c969 25be 7c64 2c3e 5829 e73d acfa 1ebe
0.102051444 0.058659583 -0.01706056 0.07110473 -0.035154097 -0.09239221 -0.034320347 0.08480079
0.17012796 -0.123086095 -0.029165303 0.13872463 -0.16915311 0.047510773 -0.08012714 0.07038106
-0.16578291 -0.088697895 -0.13533385 0.081876025 -0.028508443 -0.047314115 0.13566671 0.0988242
0.1540866 0.11828327 -0.16416003 0.0609981 -0.026123248 0.05444515 0.16525042 0.15935338
-0.052250795 0.05026703 0.12692145 0.011888066 -0.14734618 0.16596255 -0.10872308 -0.10651476
-0.057035074 -0.14833488 -0.103023164 0.1342264 -0.13495179 0.12906276 -0.018806724 -0.16392969
-0.051085774 -0.07397604 -0.1698382 0.16256629 0.1370081 -0.14199738 -0.022862537 0.12558812
0.02073452 -0.16856158 -0.028012102 0.0039040835 -0.15553509 0.010723486 -0.101517215 0.041052084
-0.11947209 0.006350139 -0.020066535 0.061330426 0.16035554 0.1610104 0.06065538 0.02681433
0.004466407 0.061328575 -0.11562002 0.055953566 0.1303983 0.12850788 0.014099364 -0.014495186
0.09355222 0.05293903 -0.16575238 0.17549407 0.08878739 0.10154735 -0.120479316 0.033283513
-0.044022866 -0.079431824 -0.00045128737 -0.10011282 -0.16153635 0.16835207 0.112871826 -0.15525311

Output.bias f4 [3]
00000000: cd52 bfbd 5b04 253e c2c8 1dbe
-0.09341965 0.16114943 -0.15408614
