DQN_scripts/Checkpoint/DQN_beta.pth (torch, 76447 bytes, 6 tensors)

layer1.weight f4 [128, 10]
000000 fc 2a 0a bd 83 bb 5e 3e a7 f2 cc bd 26 39 d3 bd
       -0.0337324 0.21751218 -0.1000722 -0.103136346
000010 d2 ec 79 3d 6e b8 4b 3e b8 01 19 be f8 25 84 bc
       0.061016865 0.19894573 -0.14942062 -0.016131386
000020 f4 32 96 3e 39 5f d4 bc d3 89 49 3d bf f8 da bb
       0.2933575 -0.025924312 0.049203705 -0.006682485
000030 c6 fa 9c 3e 56 ad 13 be a7 fd 98 3e be 88 6d 3d
       0.30660075 -0.14421591 0.2988102 0.057991736
000040 15 a3 87 be 03 a8 9d 3e 71 3c 30 be 23 0b 2e 3e
       -0.2649161 0.30792245 -0.17210557 0.16996436
000050 72 ac 62 3e 96 cd 7b be f4 65 8f be 3e dd 9d 3e
       0.22136095 -0.24590144 -0.28007472 0.30832857
000060 de f3 8a be 5b 3b c2 bd 8f 0b 2d 3c 52 5b 90 be
       -0.2713918 -0.094839774 0.010561838 -0.28194672
000070 c0 b4 80 3e d9 50 20 be 1d 36 34 3d 01 0d 87 bd
       0.251379 -0.15655841 0.04399692 -0.06594277
000080 9c d4 32 bc fb 76 ae 3c 87 2c e1 3c 89 90 07 3d
       -0.010914948 0.021296969 0.027487053 0.033096824
000090 b4 c5 0c 3e 92 b1 1c 3e 06 b2 7e be a1 2d 6d bb
       0.13747293 0.15302113 -0.24872598 -0.0036190527
0000a0 6c 71 13 3e 95 24 9d 3e 9a b7 7a 3d 3f 4c 8d be
       0.14398736 0.30691972 0.061210252 -0.27597234
0000b0 6f 69 33 3d 8d 61 1b 3e 19 76 96 3e 89 7f 9a be
       0.04380172 0.15173931 0.29386976 -0.30175427
0000c0 cb 85 2c bc 04 3d 4d be 91 5f df bd 5f 2d 40 be
       -0.010529946 -0.20042807 -0.109069 -0.18767308
0000d0 87 14 65 3e 74 7c c4 3c 7f 63 98 bd dd 73 a1 3e
       0.22371112 0.023985125 -0.074408524 0.3153371
0000e0 df 72 26 3e d0 cf 70 3d f2 62 b2 3d 1d 9b 06 3e
       0.16254757 0.058791935 0.087102786 0.13145109
0000f0 d3 40 96 3e b9 58 60 3e 5b f2 8d 3e 31 aa 50 3e
       0.29346332 0.21908845 0.27723965 0.20377423
000100 55 63 9b be 78 aa 83 be 36 ac 5c 3e fe 0a 0e be
       -0.30349222 -0.25715995 0.21550068 -0.1387138
000110 3d 5a 81 be cf c3 95 3d a1 fb 06 bd a3 95 0b be
       -0.2526416 0.07312738 -0.032954816 -0.136313
000120 a7 1c 7a 3e 89 67 90 3e 9a 64 4e bb 2e 61 a4 bd
       0.24424993 0.2820399 -0.0031493069 -0.08026348
000130 eb 75 62 bd 69 83 9a 3d d7 15 1c be 56 53 1e be
       -0.055288237 0.07544596 -0.15242706 -0.15461478
000140 93 89 e4 3d e5 cd 7b 3e 3c a0 6c bd c7 ea 66 be
       0.11159053 0.24590261 -0.05777 -0.22550498
000150 96 be 5e bd 97 8b 3d 3e 46 f1 2e 3e af 09 94 3b
       -0.054380976 0.1851028 0.17084226 0.004517756
000160 f6 a9 96 be 35 61 fc bc ef 79 56 be 7e de cf 3c
       -0.29426545 -0.03080807 -0.20944951 0.025374647
000170 22 eb 44 3d 62 17 50 3e f7 46 c6 bd 98 cd 18 be
       0.048075803 0.2032142 -0.09681504 -0.14922178
000180 e9 0b 6a 3d b9 ae 5c 3c 84 b9 02 3d 3a 64 9b 3e
       0.057140265 0.0134693915 0.031915203 0.30349904
000190 e2 4f b7 3b 6f d8 47 3c 1d 33 f5 bd 24 dc 51 3e
       0.0055942396 0.012197598 -0.1197264 0.20494133
0001a0 b2 37 59 be c9 e2 56 3e 86 4a 4d 3b b5 1c 56 3d
       -0.21212652 0.20984949 0.0031324937 0.05227347
0001b0 68 52 11 3e 44 e0 de 3d a5 45 e7 3d 93 bb a3 3d
       0.14191592 0.10882619 0.112925805 0.07994761
0001c0 5a 1d 33 3e 2e ef 9e 3e 4e de 59 3e cd 0d 4d 3e
       0.17491665 0.31041855 0.21276209 0.20024796
0001d0 30 92 d0 3d 23 3d 4f be 1c e0 62 3e 13 a0 42 3e
       0.10184133 -0.20238166 0.22155803 0.19006376
0001e0 86 4c 99 be f4 69 2c be 7f 05 9d 3e 99 40 12 be
       -0.29941195 -0.16837293 0.30668256 -0.14282455
0001f0 87 35 5c be ce 19 23 be 40 97 6d bc 4c 2a 6d be
       -0.21504794 -0.15927812 -0.014501393 -0.23160666
000200 b5 c5 cc 3c b8 ed fa 3d 56 59 6d 3e 6a 83 ab 3d
       0.024996618 0.122523725 0.2317861 0.083746746
000210 cc c7 78 be 4f fa 87 3e 00 1f 53 be f3 02 6c 3d
       -0.24294966 0.26558158 -0.20617294 0.05762
000220 ef dd 95 be 1c 27 5f be c2 77 15 3d 51 8d 2e 3e
       -0.29270884 -0.21792263 0.036491163 0.17046095
000230 7a 54 83 3e af 64 8b bd f1 98 df 3c 68 7a dc bd
       0.25650388 -0.06806313 0.027294608 -0.10765535
000240 96 2c 31 3d 32 7c 9d 3b 33 07 ef bd b7 05 72 3d
       0.04325541 0.004806065 -0.11671295 0.05908748
000250 43 d0 ec 3c c8 34 48 be eb a2 40 be d9 69 31 be
       0.0289079 -0.19551384 -0.18812148 -0.17325534
000260 b3 ee 9e 3e d9 9f 81 be 8e ff 58 be 52 fb 17 bd
       0.31041488 -0.25317267 -0.21191236 -0.037104912
000270 7b 2a 9a be a4 38 37 3c ce 19 01 be e5 fa 9a 3e
       -0.30110535 0.011182938 -0.126075 0.30269542
000280 dc e5 3b be 42 06 50 be 33 d5 89 be a0 8f 64 3b
       -0.18349403 -0.20314887 -0.2692047 0.0034875646
000290 cd 5a f2 3d cd 55 52 3d a7 e5 b6 bd 3d e8 7b be
       0.11833725 0.051351357 -0.089305215 -0.2460031
0002a0 76 4d 35 3d 7b d9 2d 3e 38 26 ba bd 12 6a 77 3e
       0.044263326 0.16977493 -0.09089321 0.24161556
0002b0 c5 19 3c 3e 3a 61 af 3d f9 71 3b be 69 56 ce 3d
       0.18369205 0.08563466 -0.18305196 0.10075075
0002c0 3e 89 a0 3e 47 39 09 be 45 de 4e 3e ca 03 32 be
       0.31354707 -0.13400756 0.20201977 -0.17384258
0002d0 cc 06 27 3e e0 00 95 3e 0f d9 3c 3d 31 bd d9 3d
       0.16311187 0.2910223 0.04610544 0.106317885
0002e0 01 85 9c be 26 28 24 be d6 68 15 3e 0d 90 89 bd
       -0.30570224 -0.1603094 0.14590773 -0.06716929
0002f0 be e3 7b bc 68 5c 73 be 80 48 cf 3d 9c b3 86 bd
       -0.015374122 -0.23765719 0.1012125 -0.065772265
000300 4b 7c 2d bd dd 72 fa bd 36 76 80 be f7 37 9e 3e
       -0.042354863 -0.1222894 -0.25090188 0.30902073
000310 c7 c3 8a be af 91 13 3e 52 e4 25 3e 44 0f 5e be
       -0.2710249 0.14411043 0.16200379 -0.21685511
000320 f2 6c 4a 3e 5d 26 4b 3e 54 aa a1 3e f4 89 0f be
       0.19768122 0.19838853 0.31575263 -0.14017469
000330 28 00 1a bd c8 b8 86 be a5 3e 75 3e 3b df cd 3d
       -0.037597805 -0.26312852 0.23949678 0.100523435
000340 bb 11 f5 bd 3b 72 3b be 92 93 4e 3e cb 11 25 3e
       -0.119662724 -0.18305294 0.20173481 0.16120069
000350 7f 72 21 3e 55 91 8e be cb a3 88 3e 48 ec 41 bd
       0.15766333 -0.27845255 0.26687464 -0.047344476
000360 45 db a0 be ad 89 31 be 9b 58 91 3e 37 aa 85 3d
       -0.3141729 -0.17337675 0.28387913 0.065266065
000370 7c d6 6a be 60 18 54 3e 98 af 93 be 7d 87 88 3e
       -0.22933382 0.20712423 -0.28844905 0.2666587
000380 c6 64 6c 3e 98 c7 35 3e 5b 1c a1 3e 16 e6 70 3e
       0.23085317 0.1775192 0.31466946 0.23525271
000390 74 ce 80 bd 5d 37 38 3c 6a a2 0c bd e4 39 cb 3d
       -0.06289378 0.011243668 -0.034334578 0.09923151
0003a0 ba 67 06 3e 18 25 2a 3d 7a df 8a be 82 78 95 3e
       0.13125506 0.04153928 -0.27123624 0.29193503
0003b0 c7 07 f6 3d 07 0f 42 bd 73 02 5c 3e c1 e9 2e be
       0.12013202 -0.047377612 0.2148531 -0.17081358
0003c0 a5 89 c2 bd 9c a9 23 be 4c fe 11 3e da a0 b6 3d
       -0.0949891 -0.1598267 0.14257163 0.08917399
0003d0 a1 6c 6a 3e 19 d1 4b be 5c 7f 49 3e a2 d3 c1 bd
       0.22893001 -0.19903983 0.1967749 -0.09464194
0003e0 de 4e 89 be 94 5d 1d be 91 7e f1 3d 80 d0 8b be
       -0.26817983 -0.15367728 0.11791719 -0.2730751
0003f0 f7 cd 8e 3e 22 ff 4a 3e 4c 66 79 3e a6 4c 1b be
       0.27891514 0.19823888 0.2435543 -0.15165958

layer1.bias f4 [128]
000000 cf b2 91 3d 37 29 0d 3e 0e 6f 5e 3e df fc 8f 3e
       0.07114183 0.13785253 0.21722052 0.28122613
000010 cd 0b 21 3e d2 72 46 3d a6 c6 47 bd b2 12 71 3d
       0.15727158 0.048449345 -0.04877343 0.05885572
000020 f2 d4 5f be f3 e3 dc bd f9 3b 1f 3e c7 e5 4c 3e
       -0.21858576 -0.10785665 0.15550222 0.20009528
000030 c0 79 40 be 3c 3f 29 be 22 9f c6 bd 2d 95 22 3e
       -0.18796444 -0.16528028 -0.09698321 0.15877219
000040 2c 1c e9 3d c0 5d ac 3d e4 6e d0 3d ba 6b b6 bd
       0.113823265 0.08416319 0.10177401 -0.08907266
000050 84 25 e2 3d 5f c4 c0 3c de fb 5d 3d 47 e4 a1 bd
       0.11042312 0.023531137 0.054195277 -0.079048686
000060 07 ec 4d 3e 54 79 0a be 62 60 53 3d 88 b9 c5 3d
       0.20109569 -0.13522846 0.05160559 0.09654528
000070 9a 21 2e bd 7b 8d 07 be 47 8f a1 be 5b 93 52 be
       -0.042512514 -0.13237564 -0.31554624 -0.20564024
000080 f9 d8 eb 3d 8b 0a 84 3e 76 63 8f be 2a 97 cf 3d
       0.115159936 0.25789294 -0.2800557 0.10136254
000090 fe 45 64 be 77 00 f3 bd 37 e1 9f be 59 07 0b 3e
       -0.22292325 -0.11865323 -0.31226513 0.13577022
0000a0 b1 9d 2b be 80 f4 ca bd 30 74 18 3e 17 85 44 3e
       -0.16759373 -0.09909916 0.14888072 0.19191395
0000b0 ad 58 1d be 41 46 d0 bd ed a3 7d be 21 dd cc 3d
       -0.15365858 -0.1016965 -0.24769564 0.100031145
0000c0 a4 d2 9c be 77 93 1b be ec 81 cd bd 13 f6 a0 be
       -0.30629456 -0.15192972 -0.10034546 -0.3143774
0000d0 3e d5 85 3d 71 89 98 be e5 c9 1b 3e d3 fe b2 3c
       0.06534813 -0.2979236 0.15213735 0.021850025
0000e0 ef 79 79 3e 5a ba 87 3e 44 07 65 be 8a 06 8a bd
       0.2436292 0.26509362 -0.22366053 -0.067395285
0000f0 cd d5 68 be fe 77 f5 bc 43 b8 5b 3d 62 45 e3 bd
       -0.22737809 -0.029964443 0.053642523 -0.11097218
000100 53 ad 29 be 42 6a 37 be bf 12 91 3e 26 82 8a be
       -0.16570024 -0.17911628 0.28334615 -0.2705242
000110 1a a8 2c be 51 00 8e 3e ac b8 dd 3c a2 bb 0c 3e
       -0.16861 0.27734616 0.027065597 0.13743451
000120 c5 89 89 be 3b 40 b7 bc 70 b4 04 be d9 f4 4c be
       -0.26862922 -0.022369495 -0.12959456 -0.20015277
000130 42 64 8f 3e 45 03 e6 3c 41 c7 23 bd fd 19 49 3e
       0.28006178 0.02807773 -0.039984945 0.1963882
000140 38 62 92 be 3e 42 0b be 56 f1 15 be ca 3f 2c bd
       -0.2859056 -0.13599488 -0.14642844 -0.04205302
000150 c4 74 0f 3e 62 20 19 be 50 c9 98 be a3 d8 d8 3d
       0.14009386 -0.1495376 -0.2984109 0.10588195
000160 08 c9 6b be 82 1d eb 3d 71 57 5f 3e e5 71 90 3d
       -0.23025906 0.114802375 0.218107 0.07052974
000170 68 b8 7c be 45 fe 5a 3e 2e 3b 98 be fe 41 21 bd
       -0.2467972 0.21386059 -0.2973265 -0.039369576
000180 66 0d 97 3e 9c a8 09 3e 69 d9 fc 3d 81 ea 4b 3e
       0.2950241 0.13443226 0.12346155 0.19913675
000190 12 fe f5 bd 00 56 89 3e 9d 75 25 be f0 c8 5a be
       -0.12011351 0.26823425 -0.16158147 -0.21365714
0001a0 a6 85 9f be 14 1f 1f be 49 0c 55 3e 15 7d 80 bd
       -0.31156653 -0.15539199 0.20805468 -0.062738575
0001b0 71 a3 dd bd 54 86 48 3e 26 c4 c9 3d 3f ce b2 3d
       -0.108221896 0.19582492 0.098518655 0.087307446
0001c0 df 02 20 3e 81 67 51 be c8 41 7c be a3 7f 09 be
       0.15626095 -0.2044964 -0.24634469 -0.13427596
0001d0 86 75 4c 3e cc 41 5b 3e 44 c3 57 3d c1 64 7f 3e
       0.19966707 0.21411818 0.052676454 0.24940778
0001e0 08 4a 57 3d d2 bd 42 3d f3 47 1a 3e e8 bc 59 be
       0.052560836 0.047544308 0.15066509 -0.21263468
0001f0 c1 71 78 be df f2 79 3e 35 02 dd 3d 10 4e 72 3e
       -0.24262144 0.24409054 0.107914366 0.23662591

layer2.weight f4 [128, 128]
000000 1a 22 27 bd c5 de 35 bd ed b3 7a 3d 38 a9 8f 3c
       -0.040804006 -0.044401903 0.061206747 0.017536744
000010 eb 28 4b 3d ae 98 e1 bb 90 36 0e 3d 06 ce 2c bd
       0.04959957 -0.006884656 0.034720004 -0.042188667
000020 cb f9 ab 3d 43 3e 47 bd 63 09 75 bc 26 d9 20 3d
       0.083972536 -0.04864336 -0.014955851 0.03926959
000030 2d 5c 09 bd 63 60 ce 3c 3b 15 a5 3d 86 16 81 3c
       -0.03353517 0.025192445 0.0806069 0.01575781
000040 61 51 53 bb 99 00 50 3d d9 be cb bc 39 a7 b3 3d
       -0.003224455 0.05078182 -0.024871277 0.087721296
000050 a8 98 c8 3c 84 35 84 bd 17 d3 2f 3d db c9 6e bd
       0.024486855 -0.0645552 0.04292592 -0.058297973
000060 02 87 27 3d 3d f6 8d 3d 4d 3d 1b bc fc ad 8a 3d
       0.040900238 0.06931732 -0.009475064 0.06771466
000070 2e 55 36 bd 9e ae 38 bd e4 34 22 3d 9b 8b a4 3d
       -0.044514827 -0.045088403 0.03960122 0.0803444
000080 b0 17 db 3c 6a 5f 48 bd 9c 91 48 3d 90 d6 b9 bc
       0.026744694 -0.04891912 0.04896699 -0.02268532
000090 ae c8 e4 3b 55 25 a6 bc ea f3 a6 3d e5 ae e0 bb
       0.0069819307 -0.020281473 0.08151992 -0.0068567866
0000a0 ed b2 34 3b 9c 14 36 3c ca 92 be 3c 00 e5 b0 bd
       0.0027572468 0.011113312 0.023263354 -0.08637428
0000b0 04 00 6d bd 55 be f2 3c 3f dc 8e bc e3 d3 16 bd
       -0.057861343 0.029631773 -0.017439006 -0.036823165
0000c0 19 d1 d4 bc dd 82 c9 3c e6 f1 2c bd ae 9a 81 3d
       -0.025978612 0.024598533 -0.04222288 0.06328331
0000d0 f0 ee 39 bc 3a 41 ab 3d a8 64 a3 bc b1 85 83 3d
       -0.011348471 0.0836205 -0.019945458 0.06421984
0000e0 aa 42 1e bd 37 87 81 bd 10 e7 d8 bb fc 2e 89 3d
       -0.038637795 -0.06324618 -0.0066193417 0.06698415
0000f0 92 2d bc 3c c2 9f 80 bd 7d 30 92 3d ba 59 ae bd
       0.022970948 -0.062804714 0.07138155 -0.08513208
000100 50 64 a7 3d 31 86 a3 bd a8 b3 55 3c b2 3f 3b 3c
       0.0817343 -0.07984579 0.013043322 0.01142876
000110 19 c9 65 bb 30 3a 3e 3d 26 b4 56 3d e5 de e7 3c
       -0.003506249 0.04644221 0.052417897 0.028304527
000120 15 e2 d5 3c 20 6c c1 bb a5 df 07 3b aa 03 93 3d
       0.02610878 -0.005902782 0.0020732668 0.07178433
000130 7e 77 f6 bb 70 4c b4 bc 6a ca 12 bd 07 66 b4 3b
       -0.007521569 -0.022009104 -0.03583757 0.0055053267
000140 1d 05 82 3d 8a 3a 60 3d d8 f7 9e bd 89 71 e7 ba
       0.063486315 0.054743327 -0.07762116 -0.0017657737
000150 9c a9 1d 3c 8b 11 2f bd 1b 12 7b 3d 58 ac 81 3d
       0.009622958 -0.04274134 0.061296564 0.063317
000160 18 bb ad 3c 2c 59 85 3c a1 eb 92 3d 27 3f 74 3b
       0.021207377 0.016277872 0.07173849 0.0037269087
000170 7d 07 85 bd b9 d2 f3 3c 6f 1a 80 3d 1e ee 07 3d
       -0.06495569 0.029763566 0.06255042 0.03318607
000180 52 96 4b 3c 08 43 e1 ba 5e 94 40 bd ae b6 ac 3c
       0.012425976 -0.0017186115 -0.047016494 0.021083202
000190 b7 64 e4 bb ee 32 a5 3c f8 9c e5 3c f5 68 90 ba
       -0.006970014 0.020165887 0.02802895 -0.0011017608
0001a0 0d ef 32 3d f6 c0 55 bd 50 3c 05 bd 82 cb 71 3d
       0.043685008 -0.052185975 -0.03252822 0.05903197
0001b0 fe 4c 0e 3c 1c ac dc bc 8a 79 b1 bd 96 e1 29 bd
       0.008685349 -0.026937537 -0.0866576 -0.0414749
0001c0 cf 9e 53 3c f1 8e 4b ba c6 48 b0 3d 14 be 46 3d
       0.012916281 -0.00077651354 0.086076304 0.048521116
0001d0 23 02 41 3d dd 83 76 b9 59 47 7d 3c e7 c5 b5 3c
       0.04712118 -0.00023509511 0.015458905 0.022189094
0001e0 c5 4b a4 bb 05 c2 25 bd d5 f6 99 3d fe 17 1d ba
       -0.0050139152 -0.040468235 0.075177826 -0.000599265
0001f0 67 94 8e bd 77 5a d7 3c 00 23 6e bd 6f 99 a7 bd
       -0.06961899 0.026288254 -0.058138847 -0.08183562
000200 db fa 57 3d f4 69 ac 3d 36 af c1 3b 87 a9 ad bc
       0.05272947 0.084186465 0.0059107793 -0.021199001
000210 1a 1d 70 3c 83 84 97 bd ab 5e ac bd 0a dc 51 3d
       0.014655376 -0.073983215 -0.08416494 0.051235236
000220 c5 5a aa bd 1c 17 a3 3d 33 b1 97 bc af 3e b0 3d
       -0.08318094 0.07963392 -0.018517112 0.08605706
000230 dc ab 8b 3d 80 4f a6 bd 80 8b 13 3d c5 8a 39 bd
       0.06819889 -0.08120632 0.03602171 -0.045298357
000240 95 e5 19 3d 80 3d 82 39 ad 49 7c bc c4 a2 2b bd
       0.037572462 0.00024841353 -0.015398425 -0.041903272
000250 b0 5a 78 3d 9d da 9a 3c 57 8e 41 bd d4 d6 f4 3c
       0.06063336 0.018903071 -0.047254886 0.029887594
000260 c2 a9 40 3d 54 15 04 3d 81 75 d4 3b 21 5d 96 3d
       0.047036894 0.032246903 0.006483734 0.07341982
000270 2b b5 75 3c 11 6c 70 3d 93 74 76 3c 36 bc 8b bd
       0.014996807 0.05869681 0.015042442 -0.06823008
000280 b4 7b 84 bd 48 0d 26 bd 97 a0 ff 3c 47 5a a2 bd
       -0.06468907 -0.04054001 0.031204505 -0.07927375
000290 20 ba 2c bd a6 c4 8f bd 84 8e 95 3c 01 7b 76 bd
       -0.04216969 -0.070199296 0.018256433 -0.0601759
0002a0 83 14 9f bc 1f 25 35 bd a0 8d 49 bd eb 68 ac bd
       -0.01941896 -0.044224855 -0.04920733 -0.08418449
0002b0 b4 2c 67 3d 90 f6 96 3d 0d 4d 16 bd a2 3a b7 37
       0.056439117 0.07371247 -0.036694575 2.1842603e-05
0002c0 92 d6 ea 3a 27 38 58 3d 74 86 71 bd e1 ab a6 3d
       0.001791673 0.052787926 -0.058966115 0.08138252
0002d0 d1 96 8c 3d dc f9 05 3d 6d e1 96 bd f8 4d 72 bc
       0.068647034 0.032708988 -0.07367215 -0.014789097
0002e0 3f 94 29 3c 7a 1e 6f bd 2e e3 46 bd 72 90 88 3d
       0.010350286 -0.058378674 -0.0485565 0.06668176
0002f0 b5 00 70 3d 74 69 16 3c 3b f3 44 bc f6 97 8d 3d
       0.058594424 0.009180415 -0.012020881 0.0691375
000300 af 7b 75 bd 2e 52 90 3d d8 2b 95 3d a9 92 17 3c
       -0.059932407 0.070469245 0.07283753 0.009251275
000310 00 ca 44 3c d3 e8 c8 3b 3d d7 7a 3d 20 67 d3 b9
       0.012011051 0.0061312704 0.061240423 -0.0004032189
000320 4d 97 4c bd 85 96 af 3d c4 50 8d 3d e2 fe b0 bd
       -0.04994898 0.08573631 0.069001704 -0.08642365
000330 0a b2 bd 3c fd 36 07 bd 36 b8 9e 3c c3 df 55 3c
       0.023156185 -0.033011425 0.019374948 0.013053837
000340 db e8 97 3d b0 2e 29 bc f3 bd 45 bb 64 19 93 bc
       0.074174605 -0.010326073 -0.0030173033 -0.017956443
000350 aa e7 82 bd 1f 64 1e bd 42 f6 29 3d b3 3d ad bd
       -0.06391843 -0.0386697 0.041494615 -0.08459034
000360 28 e0 30 bd e5 af 8f bd 5f 39 ae bd aa f0 0e bd
       -0.043182522 -0.07015971 -0.085070364 -0.034897484
000370 da cd ac bd 36 ff ab 3d c2 63 4e bd 55 80 b2 3c
       -0.084377006 0.08398287 -0.050388105 0.02178971
000380 b7 53 a0 bd 2f 08 c0 ba a8 4f 82 bd 57 13 da 3c
       -0.07828467 -0.0014650876 -0.063628495 0.02662055
000390 81 e7 5a bd df f4 61 3d c2 55 a0 3d e1 67 70 bd
       -0.053443436 0.055165168 0.07828857 -0.058692817
0003a0 ab 24 14 3d c7 36 18 bd 82 14 97 3c 6a ff b6 3c
       0.03616778 -0.037161615 0.018442396 0.022338588
0003b0 79 8c 00 3d bf 8e 42 bc dd a9 f8 3c f7 57 4b bd
       0.031383965 -0.011874854 0.030354435 -0.049644437
0003c0 0b 50 96 bc fe 00 44 3d f7 85 b7 bc 7a 77 99 bd
       -0.018348714 0.04785251 -0.022402747 -0.074934915
0003d0 dc e5 f3 3c 2c 8e 2d 3b 81 39 4d bd fa 08 b1 3d
       0.029772691 0.0026482446 -0.050103668 0.0864429
0003e0 65 e4 8b 3c 58 ed a4 3d 5e d1 93 3d 3e 8f 89 3b
       0.01707668 0.08053082 0.07217668 0.004197984
0003f0 ac 2e 1b 3b a7 a3 04 3d ab 71 a2 bd 36 98 a1 bd
       0.0023678942 0.032382634 -0.07931837 -0.0789036

layer2.bias f4 [128]
000000 38 91 f9 3c 8e 8b 13 3d 45 ec 57 bd 02 de 70 3c
       0.030464754 0.03602176 -0.05271556 0.014701368
000010 d3 44 63 3d cf 94 bc 3c c3 19 6c bd 41 5e b7 bc
       0.055485558 0.023020176 -0.057641756 -0.022383811
000020 dc 19 b3 bd 47 cb a3 3c f7 a0 dd 3c 5c 62 5e 3d
       -0.08745167 0.019994391 0.027054293 0.05429302
000030 6d 49 1a bd 3c 33 b1 bd cf c0 ab bd 2f 71 3b 3d
       -0.03766768 -0.0865235 -0.08386385 0.045762237
000040 13 f9 03 bd ea 64 9c bb da 74 94 bd 98 d0 95 bd
       -0.032219958 -0.004772772 -0.0724885 -0.07315177
000050 52 cd 27 bd f0 31 1e bd be a2 ba bc cc c5 4d 3d
       -0.040967293 -0.038621843 -0.02278268 0.050237462
000060 8a cc 07 bd 87 d5 9d 3d 40 8c 76 bd af 3d 8d bc
       -0.033154048 0.07706743 -0.060192347 -0.017241327
000070 72 79 a2 bd 09 c6 f4 bb a5 ba 4e 3d 12 29 1b 3d
       -0.0793332 -0.0074698967 0.050470967 0.037880965
000080 23 88 79 3d 2b 88 34 bd d0 ea ea bb f9 90 06 3d
       0.060920846 -0.044075172 -0.007169105 0.0328531
000090 a5 7d 3d bc c4 d5 fd 3c 3d ee 20 3d 41 5e 6e bd
       -0.0115656005 0.03098572 0.0392897 -0.058195356
0000a0 30 8e 6f bd 7d 24 8e bd 93 ce e1 3c 05 ea 9d 3d
       -0.05848521 -0.06940553 0.027564323 0.07710651
0000b0 72 8c d7 3c 63 d4 70 3d d6 0f b2 3c bb 1e cb bc
       0.026312087 0.058796298 0.021736067 -0.024794927
0000c0 66 f6 6d bc 89 5d 53 3c 8d b8 2b bd 80 f3 95 bd
       -0.014524078 0.0129007185 -0.04192405 -0.073218346
0000d0 16 4c 6f bd dc 65 2a bc 43 bf 89 bd 5a fa 54 bc
       -0.05842217 -0.010400262 -0.067259334 -0.012999142
0000e0 11 96 9d 3d 5b 54 b7 3b 96 ea 6f 3a 10 fc 56 bc
       0.076946385 0.0055947728 0.00091520825 -0.01312162
0000f0 b4 f0 63 3d 57 67 02 3d b2 45 69 bd 8b 7f 8a bd
       0.055649474 0.031836834 -0.056951232 -0.06762608
000100 28 6d ec ba f0 fc 43 3b f3 75 6f 3d 97 8a 53 bd
       -0.0018037902 0.0029905401 0.058462095 -0.05164584
000110 a0 be a1 bc 63 0b 3c bd d8 08 8e b9 e8 52 8c bd
       -0.019744217 -0.045909297 -0.0002709094 -0.068517506
000120 5e 79 b3 bc 52 3d 5f 3d b2 bc 6a 3d 67 62 56 bd
       -0.021908458 0.05450184 0.05730886 -0.052339938
000130 13 39 d7 bc a5 15 46 bd 42 8e c2 3c e8 98 93 3d
       -0.026272332 -0.048360486 0.023749474 0.07206899
000140 ce bc 81 3c 07 26 b1 3c 4b 40 a8 bd e0 89 7a 3d
       0.0158371 0.021624578 -0.08215388 0.061166644
000150 39 2a 68 bd c8 d9 8a 3d 96 d5 18 bc a5 96 7b 3b
       -0.05668089 0.0677982 -0.009328267 0.0038389352
000160 30 59 9a bd 42 7f ac 3c 83 21 3d bd fe ab 9a bd
       -0.075365424 0.021056775 -0.046174537 -0.07552336
000170 a4 35 87 bd d9 59 aa bd 34 b4 d6 3b 8d 6d 1d ba
       -0.06602028 -0.08317918 0.0065522436 -0.0006005399
000180 fc c2 0d bd 95 db ac 3d 1a 8f f8 3c 20 cb b2 bd
       -0.03460978 0.084403194 0.030341674 -0.08730149
000190 65 22 89 bd e4 46 c9 3c d9 5b a1 bd db dd 0f bd
       -0.06696013 0.024569936 -0.07878847 -0.035123687
0001a0 df 44 9f bd 76 f7 a7 3d a2 fb 32 bb 38 91 a9 3d
       -0.07776808 0.08201496 -0.002731063 0.082796514
0001b0 da 0f 68 3d 4c ca 33 3d cc f3 5b bc c1 e2 90 bd
       0.056655742 0.043894097 -0.013424825 -0.070745
0001c0 ec ca 34 bd 6b 6e 87 bd de 41 68 3d ec cd a4 3c
       -0.044138834 -0.066128574 0.05670344 0.020117722
0001d0 d4 71 7b bd 35 27 53 3d 63 b1 86 3d b1 e2 98 3d
       -0.06138785 0.051551063 0.065768026 0.07465113
0001e0 47 0f a7 3d 4b ca a1 3c 82 13 85 3d ef 49 fd 3c
       0.08157211 0.019749781 0.064978614 0.030919043
0001f0 aa bf 4d 3d a0 cb 8f ba 8b 98 99 bd 74 63 90 bc
       0.050231613 -0.0010970719 -0.074997984 -0.017625548

layer3.weight f4 [5, 128]
000000 a4 5d 45 3d 13 fb 27 bd 2b 0c 41 3d 12 f9 6d 3d
       0.048185006 -0.041010927 0.047130745 0.05809886
000010 47 0f b1 3d f6 e1 2d bb ab af b6 3c 4f 60 7f bd
       0.08645492 -0.0026532388 0.022300562 -0.062347706
000020 94 17 15 3d 41 b1 4c 3c 21 c6 4f 3d 4a eb 0d bd
       0.03639944 0.0124934325 0.05072606 -0.034648217
000030 b7 b8 a7 3d 18 01 b0 3d ff 62 5f bd e1 8d 9d 3d
       0.081895284 0.085939586 -0.05453777 0.07693077
000040 6f 60 b0 bd e0 ae 98 bc 16 3d 03 bd 14 03 91 3d
       -0.08612143 -0.018638074 -0.032040678 0.07080665
000050 ce e8 9f 3d 2c f8 d7 3c aa f8 30 bd 7e a8 80 3d
       0.07808076 0.026363455 -0.043205895 0.06282137
000060 01 80 99 bd 15 8f b4 bd 77 5b da 3c cf 04 9a bd
       -0.07495118 -0.08816353 0.026654942 -0.075204484
000070 71 ca a2 3d 8f 52 45 bd 6d c3 5d 3d ee 0d a7 bc
       0.07948769 -0.048174437 0.05414145 -0.020392384
000080 fb c1 63 3d f3 88 9e 3d 9c ee 9c bd f2 dd 67 3c
       0.055604916 0.07740965 -0.076626986 0.014152037
000090 5d 77 dc 3c 01 77 a5 3d ae a2 8d bd db de 5e 3b
       0.026912386 0.08079339 -0.06915794 0.0034007344
0000a0 21 67 9b 3c 1a 44 ca 3b 1d 6c 81 3d 18 7a 40 3d
       0.018970074 0.006172669 0.06319449 0.046991438
0000b0 58 47 96 bd 59 b8 69 bd 3c 48 05 3d f8 52 58 3d
       -0.073378265 -0.057060573 0.03253959 0.0528135
0000c0 df f1 91 3d a1 6c b3 3d 77 20 98 bd 51 84 18 3c
       0.071262114 0.08760954 -0.07428067 0.00930889
0000d0 17 ce 84 3c 72 e1 7a 3c bf ca a0 3d 93 b7 98 3d
       0.016211553 0.015312539 0.07851171 0.07456889
0000e0 f4 69 ab bd 12 56 7a 3d b2 d7 12 3d 77 f6 4b bd
       -0.08369818 0.06111724 0.035850234 -0.049795594
0000f0 36 20 ba 3c 38 f9 84 3d 15 58 b4 3d 2b 3d 86 bd
       0.022720437 0.06492847 0.08805863 -0.065546356
000100 d5 ca ac 3c 9d 1b 69 bd ff e5 af bc 42 69 9d bd
       0.021092812 -0.0569111 -0.021471975 -0.07686092
000110 89 bd fb 3c 36 e8 30 3d ed c4 ad 3c f3 f3 98 3d
       0.030730026 0.043190204 0.021212066 0.074684046
000120 fd bf 46 bd 19 b5 d0 bc 83 1c 16 3c 06 ea 75 3d
       -0.048522938 -0.02547698 0.009162071 0.060037635
000130 b6 0c 34 3c 5b a1 67 3d d1 5a 44 3d 5c 0f 02 bb
       0.010989359 0.056550365 0.04793817 -0.001984558
000140 df 04 d5 3b 2e 08 41 bd b1 8a a6 3d ef 00 49 3d
       0.006500825 -0.04712694 0.08131922 0.049073156
000150 6c 8e 5e bd b3 d2 9e 3d 2b 4a 33 3d 0b 5c 6e 3d
       -0.054335043 0.077550314 0.043771904 0.058193248
000160 94 96 2b 3c 7c 56 3e 3d 30 e3 ea 3c 53 e7 c8 bb
       0.010472912 0.046469197 0.028672785 -0.0061310916
000170 67 6a 1d bd b2 e2 52 3d 52 78 58 bd 23 67 61 bc
       -0.03843155 0.051485725 -0.05284912 -0.0137575
000180 52 6f 5c 3d 9d c0 6d bc 39 99 82 3c 42 b2 17 3d
       0.0538171 -0.014511255 0.015942203 0.037035234
000190 b0 6e 45 3d 02 34 95 3c d8 1d 7c bd 2d dd 66 bc
       0.048201263 0.018213276 -0.0615519 -0.014090818
0001a0 68 34 96 bd da 00 7e bd d6 87 93 bd e5 45 ae 3d
       -0.073342144 -0.06201253 -0.07203643 0.08509425
0001b0 80 32 07 3d 86 0b 89 bd 60 c1 45 bd cc 0b ba bb
       0.033007145 -0.06691651 -0.04828012 -0.005677676
0001c0 ff b5 ac 3d d4 45 c1 3c 68 c9 e5 bc 33 c4 a4 bc
       0.084331505 0.023592867 -0.02805014 -0.020113086
0001d0 15 b7 03 bd 8b de 56 bc 95 57 33 bd 18 56 9f bd
       -0.032157023 -0.013114582 -0.043784697 -0.07780093
0001e0 9c f2 f3 bb 26 40 17 3d b2 49 3b bd 8c d7 a9 3d
       -0.007444693 0.03692641 -0.04572458 0.082930654
0001f0 cf d8 99 bd ec 1e ab bd e1 87 0a bc b9 d4 64 3d
       -0.07512056 -0.08355507 -0.008455248 0.05586693
000200 04 ea 92 3d bd 01 8b 3d 18 23 71 3d c0 70 a6 bd
       0.07173541 0.06787441 0.05887136 -0.08126974
000210 05 91 85 bd f7 28 87 3d 16 40 a0 bd d1 2a aa 3c
       -0.06521801 0.0659961 -0.078247234 0.02077237
000220 ca f1 78 3d f7 f1 86 3d 99 a5 82 bc 2d 3c e6 39
       0.060777463 0.0658912 -0.015948104 0.00043913853
000230 62 09 bf 3c 31 da 9b bc 54 73 8d 3d e6 23 d8 3b
       0.023319904 -0.01902494 0.06906763 0.0065960763
000240 94 0d 39 bd f7 fa a6 bd 3d 50 89 3d 42 88 92 bd
       -0.045178965 -0.081533365 0.06704757 -0.07154895
000250 a0 ad 31 3d 47 2f 83 3d b9 20 62 3d 6a 9d a5 bb
       0.043378472 0.06405502 0.055206988 -0.0050541656
000260 df 15 5e 3d 46 a9 ea 3c 97 60 9a 3d 19 6a 07 bd
       0.054220077 0.028645169 0.07537954 -0.033060167
000270 a9 71 d4 3c 22 38 7b 3d 80 47 38 3d e6 73 b4 3d
       0.025933104 0.06133283 0.044990063 0.088111684
000280 99 3c 23 ba 14 ae 09 bd dc 37 b0 bd f1 30 94 bc
       -0.00062269863 -0.03361328 -0.08604404 -0.018089743
000290 4f e4 ce bc 8c c0 8f 3d 08 00 48 bd 71 9f 31 bd
       -0.02525535 0.07019147 -0.048828155 -0.043364946
0002a0 db 22 66 bd 78 40 8d bd e9 4a 35 3d cb ee f2 bc
       -0.056185585 -0.06897062 0.044260893 -0.029654881
0002b0 29 9c 9d 3d 3d a5 10 3b 97 a9 81 bd 86 8f a6 3d
       0.07695801 0.0022071146 -0.06331175 0.08132844
0002c0 1a 45 8a 3c 1c 27 57 bd c6 ce 5f bd 5a d4 b4 3d
       0.016878653 -0.052527532 -0.054640554 0.08829565
0002d0 cf 0c 69 bc f4 cd 31 3d 27 1b a4 bd cf 1d 26 bd
       -0.014224245 0.043409303 -0.080129914 -0.04055577
0002e0 58 2b 89 bc 6d 8a 68 bd 3e d8 8c 3d 67 19 96 bd
       -0.0167443 -0.056772638 0.068771824 -0.07329064
0002f0 54 c5 a7 bd 34 c8 ad bd 1a 5d 8f 3d 66 56 8e 3d
       -0.08191934 -0.08485451 0.070001796 0.06950073
000300 05 1a 80 bc a6 98 7e 3d a7 01 68 bd 6f b0 c8 bc
       -0.015637407 0.062157296 -0.0566422 -0.024498193
000310 4d d3 7b 3d a8 e6 a3 3c f5 2e 0f bc e8 b3 52 bd
       0.06148081 0.020007446 -0.008739223 -0.051441103
000320 b6 f3 08 3d 24 ed b6 bc 0e d7 81 bd 36 62 9f bd
       0.033435546 -0.022329874 -0.063398466 -0.07782404
000330 aa 28 60 bd f2 9c 80 bd 74 70 3d bd 1b 14 2d 3d
       -0.05472628 -0.06279935 -0.04624982 0.042255502
000340 66 e6 a8 3d 08 3b f6 3c df 65 9c 3d 9f bd 49 3c
       0.0824707 0.030057445 0.07636618 0.012313276
000350 8a 7e dd 3a dc 2b 3e bd 2f 64 d3 3c b9 63 b1 bd
       0.0016898673 -0.046428546 0.025804607 -0.08661599
000360 4d e5 b2 3d d1 b9 a9 3d ae c5 37 bd 4f 94 84 3c
       0.08735142 0.08287395 -0.044866256 0.016184
000370 6a 32 74 bd 25 21 f4 3c b2 f0 a6 3c 0b c0 84 bd
       -0.05961839 0.02980096 0.020378444 -0.06481942
000380 6d 48 28 3d 88 f8 1f bc 1b 81 95 3c 00 c0 07 bb
       0.041084696 -0.009763844 0.018250039 -0.0020713806
000390 ba 5c af 3c c9 80 21 3d a8 b8 a9 3d 34 39 b2 bc
       0.02140652 0.03942946 0.082871735 -0.021755792
0003a0 09 92 f5 ba de 4b 98 3d a6 47 7f 3c 4a 66 78 3b
       -0.0018735538 0.074363455 0.015581047 0.0037902766
0003b0 37 4a 91 3d f1 4e dd bc 4a db c2 3c 49 3e 23 bd
       0.070942335 -0.027015181 0.023786206 -0.03985432
0003c0 8d d3 9d 3d eb b4 2d 3d 23 ac 8b bc 81 31 93 bd
       0.07706366 0.042408865 -0.017049855 -0.071871765
0003d0 b1 56 8a 3c fe da dd 3b 5c be 99 3c 8e 3c 68 3d
       0.01688704 0.0067704907 0.018767528 0.056698374
0003e0 1e 4c 73 3d 12 a4 b4 3d 21 26 61 3d fe d4 ae 3d
       0.059398763 0.088203564 0.054968003 0.08536719
0003f0 e1 02 cd 3c 9a 3c 48 3c 9f b8 a3 3d 45 5e a0 bd
       0.025025787 0.01222148 0.07994198 -0.078304805

layer3.bias f4 [5]
000000 fc bd 4f 3d d2 a2 98 bd 6b a6 4b 3d f6 2e a3 bd
       0.050718293 -0.074529305 0.049719255 -0.079679415
000010 5d 2f 85 bd
       -0.065031745
