DQN_scripts/Checkpoint/DQN_beta_up2u.pth (torch, 25995 bytes, 8 tensors)

Input.weight f4 [128, 10]
0	0x3e914320	0.28371525
1	0x3e4200e0	0.18945646
2	0x3e9b01f4	0.30274928
3	0x3e8a0d45	0.2696325
4	0x3d6fd380	0.05855131
5	0xbe234d2a	-0.15947405
6	0x3a9f4525	0.0012151344
7	0x3d8118b0	0.06303537
8	0xbe8567db	-0.26055798
9	0x3be6ef6a	0.0070475833
10	0xbe9305ba	-0.28715307
11	0x3e839c7b	0.25705323
12	0x3e7e437c	0.24830431
13	0xbd8df957	-0.069323234
14	0xbb5a5cd9	-0.0033319502
15	0x3e0c6b31	0.13712765
16	0xbd3e6b43	-0.04648901
17	0xbe090a2b	-0.13382785
18	0xbdfa3607	-0.12217336
19	0xba83f4b7	-0.0010067438
20	0x3dcda520	0.10041261
21	0xbe875e10	-0.26438951
22	0xbe7081dd	-0.23487039
23	0x3de69401	0.11258698
24	0x3d0e0ec9	0.03468207
25	0xbe90c754	-0.28277075
26	0x3d265d7a	0.04061649
27	0x3e00b356	0.12568411
28	0x3e60a920	0.21939516
29	0xbd9d3e88	-0.076779425
30	0xbe90cead	-0.2828268
31	0xbe0c9cae	-0.13731644
32	0xbcf0bba7	-0.029386355
33	0x3e968a20	0.29402256
34	0x3e893c42	0.26803786
35	0xbe07ee6f	-0.13274549
36	0x3dbb8be0	0.091575384
37	0xbe8ed45e	-0.27896398
38	0xbe5f4491	-0.218035
39	0x3b30622a	0.002691398
40	0x3e169ef5	0.14709075
41	0x3e15553d	0.14583297
42	0x3e444d30	0.1917007
43	0xbe1858b2	-0.14877585
44	0x3dd0c644	0.10194066
45	0xbe6af116	-0.2294353
46	0x3cc9ac0e	0.024618175
47	0x3e05e7b1	0.13076665
48	0xbe3a311c	-0.18182796
49	0xbe8cb3c8	-0.27480912
50	0x3e8dea56	0.27717847
51	0xbe52254d	-0.20522042
52	0xbda62ae6	-0.08113651
53	0x3d03ece3	0.032208335
54	0xbe021c87	-0.12706195
55	0x3e635dee	0.222038
56	0xbe3de927	-0.18545972
57	0x3c04f046	0.008113926
58	0x3e49931d	0.19685026
59	0xbda2bf8b	-0.0794669
60	0x3e95ff77	0.29296467
61	0xbdf9f580	-0.122050285
62	0x3e7013e7	0.23445092
63	0x3e7f4380	0.24928093
64	0x3e8be6a9	0.27324417
65	0x3cec5ef9	0.02885388
66	0xbe813b90	-0.25240755
67	0x3e0f8297	0.1401466
68	0xbb39ff0c	-0.002838078
69	0xbe7af098	-0.24505842
70	0x3de66e64	0.11251524
71	0x3e5ad1ac	0.21369046
72	0x3e6745cd	0.2258522
73	0xbd03a8e6	-0.032143496
74	0xbe90bc77	-0.28268787
75	0xbdbff4de	-0.093728766
76	0x3e5542e5	0.208263
77	0x3dc73aea	0.09728034
78	0x3e1b8287	0.15186511
79	0xbdb78378	-0.089606225
80	0xbc1e0a06	-0.009645944
81	0xbe4eed9e	-0.20207831
82	0xbda130e6	-0.07870655
83	0xbe4356e3	-0.19076113
84	0x3e84932b	0.2589353
85	0x3e6d1acd	0.23154755
86	0x3e9589ae	0.29206604
87	0x3d7fae21	0.06242192
88	0x3e30e5da	0.17275181
89	0xbdb1e4fd	-0.08686254
90	0x3dc4e001	0.09613038
91	0xbdb9d4a2	-0.090737596
92	0x3e57e2ae	0.21082565
93	0xbd3be549	-0.04587296
94	0x3e8492f8	0.25893378
95	0x3e5089c2	0.2036505
96	0x3d0c0331	0.03418273
97	0x3e8a4c9e	0.2701158
98	0x3e8062b8	0.25075316
99	0x3e9fb457	0.31192276
100	0xbd4a6f86	-0.049422763
101	0xbe8fc150	-0.28077173
102	0x3d8600f1	0.06543148
103	0x3e6ffa38	0.23435295
104	0x3db5cccd	0.08876953
105	0xbd6884bd	-0.056767214
106	0xbe3a32b3	-0.18183403
107	0xbe938929	-0.28815582
108	0x3deb0773	0.1147603
109	0xbe54a164	-0.2076469
110	0xbe1dc93f	-0.154088
111	0xbd16658f	-0.036717948
112	0x3e8dd9ae	0.2770514
113	0x3e99785c	0.2997464
114	0x3d202ae2	0.039103396
115	0x3e9763f6	0.29568452
116	0xbd6953a1	-0.05696452
117	0xbe7933bd	-0.24336143
118	0xbe3bdb86	-0.1834546
119	0xbe4f5744	-0.20248133
120	0xbe8ce84c	-0.27520978
121	0x3e92ecd4	0.2869631
122	0xbde87d49	-0.11352021
123	0x3e998e4f	0.29991385
124	0xbd97e599	-0.07416839
125	0x3e035be1	0.12828018
126	0xbe8b2ebb	-0.2718409
127	0x3d41c7cc	0.04730968
128	0x3dd58930	0.10426557
129	0x3bc85808	0.00611401
130	0xbe253ba5	-0.16136034
131	0xbe7b8702	-0.2456322
132	0xbe8d9a9a	-0.27657014
133	0x3e2ca848	0.16861069
134	0x3de8b4c9	0.11362607
135	0xbe2b57f7	-0.16732775
136	0x3d27d9fa	0.040979363
137	0x3c8178c8	0.015804663
138	0xbe7259cd	-0.23667069
139	0xbe717614	-0.235802
140	0x3de64bab	0.11244901
141	0x3db31fa2	0.08746268
142	0xbe88ae36	-0.26695412
143	0x3e63b991	0.22238757
144	0x3c12445f	0.008927434
145	0xbe02d4e3	-0.12776522
146	0xbc955d78	-0.018233046
147	0xbe6f3897	-0.23361431
148	0x3ce890ea	0.028389413
149	0xbd27f078	-0.041000813
150	0xbe67431d	-0.22584195
151	0x3c4361bf	0.01192516
152	0xbd38c735	-0.045111854
153	0xbe0eec80	-0.13957405
154	0xbe4c3108	-0.19940579
155	0x3d7a99cc	0.06118183
156	0xbe9783e9	-0.29592827
157	0x3e860995	0.26179186
158	0xbd16720d	-0.03672986
159	0xbe2df7cc	-0.16989058
160	0x3e9ada48	0.3024466
161	0x3de66196	0.11249082
162	0xbe170743	-0.14748864
163	0x3b8b905d	0.004259153
164	0x3d68f07e	0.056869976
165	0x3e562e30	0.20916057
166	0x3e90a640	0.2825184
167	0x3ea0a787	0.31377813
168	0x3d847cbb	0.06469103
169	0x3e56f1dd	0.20990701
170	0xbe340cdb	-0.17583029
171	0x3e80b0c3	0.25134858
172	0x3e623568	0.22090685
173	0xbcb51da2	-0.022108857
174	0xbde6187a	-0.11235137
175	0x3e43ab24	0.19108254
176	0x3e7337bc	0.2375173
177	0x3e43d077	0.19122492
178	0xbce9ad0b	-0.028524896
179	0xbe85230e	-0.26003307
180	0xbe2a8c92	-0.16655186
181	0x3e003e37	0.12523733
182	0x3c60a256	0.013710579
183	0xbe4f5fb2	-0.20251349
184	0xbd759d58	-0.059964508
185	0xbd845a1b	-0.06462499
186	0xbe24d5dc	-0.16097206
187	0xbddf8389	-0.1091376
188	0xbd808664	-0.06275633
189	0x3dd6ee35	0.10494653
190	0xbe0df33c	-0.13862318
191	0x3e96f1e5	0.29481426
192	0xbe7788da	-0.24173298
193	0x3ca9bb5b	0.02071922
194	0xbb054b81	-0.0020339193
195	0xbea0ef71	-0.3143268
196	0xbe3a07a7	-0.18166982
197	0xbe5e29eb	-0.21695678
198	0xbd620a48	-0.055185586
199	0x3e336266	0.17518005
200	0xbe7f0e28	-0.24907744
201	0x3e7d9c72	0.2476671
202	0xbe6d3a8b	-0.23166864
203	0xbdabec95	-0.08394734
204	0xbdaae6a5	-0.08344773
205	0xbe9f010f	-0.31055495
206	0xbe314fcf	-0.17315601
207	0xbe8d5575	-0.2760426
208	0x3e705d8e	0.23473188
209	0xbd0b433e	-0.033999674
210	0x3d652eba	0.055952765
211	0xbd8d8077	-0.06909268
212	0x3d40e75a	0.047095634
213	0xbea0c3a1	-0.31399253
214	0xbe984f0d	-0.2974781
215	0x3d7753c1	0.06038261
216	0xbc9c6d95	-0.019095222
217	0x3d536b2c	0.05161588
218	0x3e9a8d15	0.30185762
219	0x3dea1190	0.11429131
220	0xbd8ea600	-0.06965256
221	0x3c1897c6	0.009313529
222	0x3d1cf4bb	0.03831933
223	0x3e240e5c	0.16021103
224	0x3e85ee0b	0.26158175
225	0x3e24d6c4	0.16097552
226	0x3df5cded	0.12002168
227	0x3e4e9f33	0.20177917
228	0x3e9382be	0.28810686
229	0x3e07d0a4	0.13263184
230	0x3e8c9726	0.27459067
231	0x3e932cd7	0.28745148
232	0xbe32eab7	-0.17472349
233	0x3e5ec3d8	0.21754396
234	0xbe7b9720	-0.24569368
235	0x3e319a78	0.17344081
236	0xbc201fa8	-0.009773172
237	0x3e82d2c0	0.25551414
238	0x3bec4b35	0.007211114
239	0x3e8f6de3	0.28013524
240	0x3e9f9f1d	0.3117608
241	0xbc9b887a	-0.018985976
242	0x3e9198fe	0.28437036
243	0xbe2f8d13	-0.1714366
244	0xbcb7615b	-0.02238529
245	0xbd3d2b7a	-0.04618404
246	0xbe167020	-0.1469121
247	0xbe9053ea	-0.2818902
248	0x3e929eed	0.28636876
249	0x3e0465b7	0.12929426
250	0xbe834d41	-0.25644878
251	0x3cfcd881	0.030864956
252	0x3b403a1a	0.0029331506
253	0xbe93b8e6	-0.28852004
254	0xbe52be9f	-0.20580529
255	0xbe583df4	-0.21117383

Input.bias f4 [128]
0	0x3e0bd880	0.13656807
1	0xbe7a81ab	-0.24463527
2	0xbdba4105	-0.09094433
3	0xbe2ee40d	-0.17079182
4	0x3daee4f8	0.08539766
5	0xbe896d71	-0.2684131
6	0xbda6cd6c	-0.0814465
7	0xbe10e8a1	-0.14151241
8	0xbbd9bbe3	-0.0066447123
9	0xbe90c9d6	-0.2827899
10	0x3d9e9242	0.0774274
11	0x3d18326c	0.03715746
12	0xbd2b51f2	-0.041826196
13	0xbe8e602c	-0.27807748
14	0xbd88b622	-0.06675364
15	0x3e6cc2d5	0.23121198
16	0x3de0211e	0.109438166
17	0x3dfa9eb3	0.12237301
18	0x3da6157f	0.08109569
19	0xbc939550	-0.018015534
20	0x3e9a4a3a	0.30134755
21	0xbe72c95f	-0.2370963
22	0x3d7b1710	0.06130129
23	0xbe6419dc	-0.2227549
24	0x3e933709	0.28752926
25	0xbe9c6497	-0.30545494
26	0xbe9483c5	-0.29006782
27	0xbdd8686b	-0.10566791
28	0x3e17a620	0.14809465
29	0x3e884381	0.26614
30	0x3db3ef05	0.08785824
31	0x3e717abe	0.23581979
32	0x3e3ab3d0	0.18232656
33	0xbe86fa34	-0.26362765
34	0x3c0ceb1b	0.008600975
35	0x3e523b98	0.20530546
36	0x3e305153	0.17218523
37	0x3e3e9e57	0.1861509
38	0x3e8faf97	0.28063652
39	0xbda856ca	-0.08219679
40	0x3e44aca1	0.19206478
41	0x3d5e7450	0.054310143
42	0xbe37b227	-0.17939053
43	0xbe9ac048	-0.30224824
44	0x3e3ba9c2	0.18326476
45	0xbe1beab1	-0.15226246
46	0x3e9eec38	0.31039596
47	0x3e6f5234	0.23371202
48	0x3e3d46cd	0.1848404
49	0x3cc6bc8a	0.024259824
50	0xbe9be11c	-0.30445182
51	0xbe42cc3b	-0.1902322
52	0xbdfdea19	-0.12398166
53	0xbe443ed1	-0.19164588
54	0x3d949f01	0.0725689
55	0x3e5a8769	0.21340717
56	0x3e3a1d23	0.18175177
57	0x3e997d1d	0.29978266
58	0x3b8540c1	0.004066557
59	0xbc924ecf	-0.017859844
60	0xbc25f3c7	-0.010128922
61	0xbe86d69c	-0.2633561
62	0xbe7ffe4d	-0.24999352
63	0xbe9939d5	-0.29926935
64	0xbe91bcf1	-0.28464463
65	0x3d16b9f4	0.036798432
66	0xbe98f0f3	-0.2987133
67	0x3dec475b	0.115370475
68	0xbdd74e39	-0.10512967
69	0xbd1f8973	-0.03894944
70	0x3d955470	0.07291496
71	0x3d399961	0.04531229
72	0xbe699abb	-0.22812931
73	0xbcdf64af	-0.02726969
74	0xbde70d60	-0.11281848
75	0xbd59e9e6	-0.05320158
76	0xbe3590c4	-0.17731005
77	0xbe4ffdbd	-0.20311637
78	0x3c71086b	0.01471148
79	0x3cb72768	0.022357658
80	0x3e10d186	0.14142427
81	0x3cafdd08	0.0214677
82	0xbe692f69	-0.22771992
83	0x3e34d669	0.17659916
84	0x3c574f22	0.013141425
85	0xbc68c461	-0.014206977
86	0xbe605574	-0.21907598
87	0x3e45bbfb	0.1930999
88	0xbe44480a	-0.19168106
89	0xbc74648e	-0.014916552
90	0x3def266d	0.11677251
91	0xbe8f5074	-0.27991068
92	0xbe4307b8	-0.19045913
93	0x3b9dbfde	0.004814132
94	0xbe9b05ed	-0.3027796
95	0xbd78c0c3	-0.060730707
96	0x3e22dec0	0.15905285
97	0xbe90c8f5	-0.28278318
98	0x3d26eb9f	0.04075205
99	0xbe2be021	-0.16784717
100	0x3e641bb0	0.22276187
101	0xbe9b46b7	-0.3032739
102	0x3e4d6d6e	0.20061275
103	0xbe24aa3a	-0.16080561
104	0xbdf97114	-0.12179771
105	0x3e72508d	0.2366354
106	0xbdeef1da	-0.11667223
107	0xbc01b8fa	-0.007917637
108	0x3d8e917d	0.069613434
109	0x3e0a8ef4	0.13531095
110	0x3dcc7a72	0.09984292
111	0xbd9cc297	-0.076543026
112	0xbd942468	-0.072335064
113	0x3e7c7e52	0.24657562
114	0x3e71c50c	0.23610324
115	0x3e93b411	0.28848317
116	0x3e4f00c7	0.2021514
117	0x3e05c6c1	0.130641
118	0x3cba223a	0.022721399
119	0x3e9603d0	0.29299784
120	0x3e215a5f	0.1575713
121	0x3e293296	0.16523203
122	0x3e5579b1	0.20847203
123	0xbdf8a65b	-0.12141105
124	0xbbf627a8	-0.0075120516
125	0xbe55039f	-0.20802163
126	0xbe8f2784	-0.27959836
127	0xbe861c0a	-0.26193267

layer1.weight f4 [32, 128]
0	0x3d26736a	0.04063741
1	0x3c4abe6f	0.0123745045
2	0x3d437170	0.047715604
3	0xbd7b7e26	-0.0613996
4	0xbd7a7893	-0.061150145
5	0xbcebe428	-0.028795317
6	0x3cc469ad	0.023976171
7	0x3d576a70	0.05259174
8	0x3c268f55	0.010166009
9	0xbd4ebad2	-0.050471134
10	0x3b33c775	0.0027432118
11	0xbc1a8634	-0.009431411
12	0x3d2959b0	0.0413453
13	0xbd96b501	-0.073587425
14	0xbd32252c	-0.04349248
15	0xbcbcd709	-0.023051756
16	0xbda18940	-0.078875065
17	0xbd3c2a14	-0.045938566
18	0xbd9494f5	-0.07254974
19	0x3db29752	0.08720268
20	0x3d91fd5f	0.07128405
21	0x3c6e1cb7	0.014533213
22	0xbd5f6562	-0.054540046
23	0xbd95272a	-0.072828606
24	0xbd8ff606	-0.07029347
25	0x3d3434da	0.043995716
26	0x3b5c9be9	0.0033662266
27	0xbd08ad0f	-0.033368167
28	0xbda0cb82	-0.07851316
29	0xbd1ea056	-0.038727127
30	0x3cf4f2a0	0.029900849
31	0x3b122e63	0.002230548
32	0x3cfa5867	0.030559732
33	0x3da83bd0	0.08214533
34	0x3db4b803	0.0882416
35	0xbd07d687	-0.033163574
36	0x3d97d51b	0.074136935
37	0x3ce0dde5	0.027449558
38	0x3d81139e	0.0630257
39	0xbc788435	-0.015168239
40	0x3d14ecb0	0.036358535
41	0x3ccf4cc8	0.025305167
42	0xbca2f5bb	-0.019892564
43	0x3d19d6d5	0.037558395
44	0xbda02536	-0.078195974
45	0xbc0f36c7	-0.008741087
46	0xbd3d28a1	-0.046181325
47	0x3c62890d	0.013826621
48	0xbda5eb2f	-0.08101498
49	0xbd0fef1d	-0.035140146
50	0x3d1aea01	0.03782082
51	0x3d66cd42	0.056348093
52	0x3d4f5d69	0.050626192
53	0x3cedde22	0.029036585
54	0x3d125002	0.035720833
55	0xbc2c0e63	-0.010501477
56	0xbd0a1d05	-0.03371908
57	0x3bf859a6	0.0075790463
58	0x3d7c14ce	0.06154328
59	0x3db43505	0.08799175
60	0xbd18b71b	-0.037283998
61	0xbc5fccb5	-0.013659646
62	0xbce75848	-0.028240338
63	0xbd84a581	-0.0647688
64	0xbc36e4db	-0.011162962
65	0xbc243b55	-0.0100239115
66	0x3caf0f7a	0.021369684
67	0xbc28d6e0	-0.010305136
68	0xbd91e1ac	-0.071231216
69	0x3d83dbfb	0.06438442
70	0x3d47aa76	0.04874655
71	0xbd8a62fd	-0.06757162
72	0x3d4a7548	0.049428254
73	0xba9eb0b3	-0.0012107104
74	0xbd008830	-0.03137988
75	0x3cfd00e7	0.03088422
76	0x3d5a7e1a	0.053342916
77	0xbd5744c4	-0.052555814
78	0xbdab36aa	-0.08360036
79	0xbcb0c259	-0.021577047
80	0x3d247808	0.040153533
81	0x3d8f1565	0.069865026
82	0x3da3092d	0.079607345
83	0xbd5a254e	-0.053258233
84	0x3db34b2c	0.08754572
85	0xbcb0ca8c	-0.021580957
86	0xbd803b51	-0.06261314
87	0x3d3a555e	0.04549157
88	0xbc51d03a	-0.012805993
89	0xbd41a61b	-0.04727755
90	0xbd46985e	-0.048485152
91	0xbb42f74f	-0.0029749458
92	0xbd14097a	-0.03614185
93	0x3c57f8a2	0.013181837
94	0xbd679164	-0.05653514
95	0x3d5827ec	0.052772447
96	0x3cf99927	0.030468537
97	0x3d54cbd1	0.051952187
98	0x3cff2829	0.03114708
99	0xbdac24e2	-0.08405472
100	0xbced5ab3	-0.028973913
101	0x3d537eef	0.051634725
102	0x3d3c91df	0.04603755
103	0x3d1b7442	0.03795267
104	0x3c00a16f	0.007850989
105	0x3cc55536	0.024088483
106	0x3d9774ea	0.073953465
107	0x3d625ad0	0.055262387
108	0xbc393f00	-0.011306524
109	0x3d8f24b7	0.06989425
110	0x3d2efa96	0.042719446
111	0x3db0ccc3	0.08632805
112	0xbd6c1e1e	-0.05764591
113	0xbd41ddec	-0.04733078
114	0xbd9c4516	-0.076303646
115	0x3d33fc92	0.04394204
116	0xbcf31dcb	-0.029677292
117	0x3d9ff23c	0.078098744
118	0x3db095c4	0.086223155
119	0xbb0b4124	-0.0021248544
120	0x3d5bd819	0.053672884
121	0xbd91b871	-0.071152575
122	0xbc4d0237	-0.012512735
123	0xbd51986f	-0.051170763
124	0x3d9735e6	0.07383327
125	0x3d5c53cf	0.053790864
126	0xb9f6ab77	-0.00047048528
127	0xbd8e4839	-0.06947369
128	0x3c61023e	0.013733445
129	0x3cb39ee9	0.02192636
130	0x3d8db451	0.06919158
131	0xbbba9379	-0.0056938496
132	0x3d8250b5	0.0636305
133	0x3d6e57bc	0.05818914
134	0x3d97cb5d	0.07411835
135	0x3d6e5343	0.058184873
136	0xbdace2a0	-0.08441663
137	0xbce60a8c	-0.028081201
138	0xbd99fc7b	-0.0751886
139	0x3bd6d29c	0.0065558683
140	0x3d6514a7	0.0559279
141	0x3da9a9de	0.08284353
142	0x3d7051fb	0.058671933
143	0xba19f8f6	-0.0005873585
144	0xbcf53e05	-0.0299368
145	0x3da21d24	0.079157144
146	0x3c3488cf	0.011018946
147	0xbc51e5f9	-0.012811177
148	0xbd81ed87	-0.06344133
149	0xbd552c80	-0.05204439
150	0xbc7d635e	-0.0154655855
151	0x3c443248	0.011974879
152	0x3cae4e70	0.021277636
153	0xbb755a5a	-0.0037437887
154	0x3d1841c8	0.03717211
155	0xbdad6250	-0.08466017
156	0xbccdc435	-0.025117973
157	0x3d898ac2	0.06715919
158	0x3c0a7cbe	0.008452592
159	0x3d9bd0d6	0.07608192
160	0xbd696581	-0.056981567
161	0xbdaabd4c	-0.08336887
162	0x3c41b31a	0.011822486
163	0x3d86b3e8	0.06577283
164	0x3d640b3b	0.055674773
165	0xbcf7dba1	-0.030256094
166	0x3daca8cb	0.08430632
167	0x3d6c190b	0.05764107
168	0x3c8218f3	0.015881037
169	0xbdaf1efc	-0.08550832
170	0x3cdd214a	0.026993413
171	0xbd7b32ad	-0.061327625
172	0x3d841c07	0.06450658
173	0x3cbbd748	0.022929803
174	0xbd7ffe09	-0.062498126
175	0x3d0a5c64	0.033779517
176	0x3d8597e2	0.0652311
177	0xbb46fdeb	-0.003036375
178	0xbd24bf40	-0.040221453
179	0xbd7cf0cb	-0.061753076
180	0x3d0ac412	0.033878393
181	0x3d9fe60a	0.07807548
182	0xbd8da857	-0.06916874
183	0xbd10ab6d	-0.035319734
184	0xbcbe5550	-0.02323404
185	0xbc65913c	-0.014011677
186	0x3d5717e0	0.052513003
187	0xbd4950b1	-0.04914922
188	0x3d82b81c	0.06382772
189	0x3c6a177a	0.014287824
190	0x3d19fbd2	0.03759367
191	0xbd6c9b6b	-0.057765406
192	0xbc9da9fc	-0.019246094
193	0x3d4df91e	0.050286405
194	0x3d50cde4	0.050977603
195	0x3cd6dd65	0.026228616
196	0xbd11f911	-0.03563792
197	0xbd9013ec	-0.0703505
198	0x3d99a75b	0.07502624
199	0x3c33a601	0.010964871
200	0x3c1b022b	0.009460966
201	0xbd01a795	-0.03165396
202	0xbd1e3c91	-0.03863198
203	0xbd89d382	-0.06729795
204	0xbcde2209	-0.027115839
205	0xbcbe55d8	-0.023234293
206	0x3d04995b	0.032372814
207	0x3d94b446	0.07260947
208	0xbd8fbfcc	-0.07019004
209	0xbd25ba2a	-0.040460743
210	0xbd835d24	-0.064142495
211	0x3d8dc088	0.06921488
212	0xbd679906	-0.05654242
213	0xbccb8e80	-0.024848223
214	0x3d3cfa3c	0.04613708
215	0x3ca1e436	0.01976214
216	0x3d3137f0	0.043266237
217	0x3c6aa863	0.014322373
218	0x3d9ea99c	0.07747194
219	0x3d15f802	0.03661347
220	0xbcc3759d	-0.023859793
221	0xbc10cc87	-0.008837826
222	0x3b5f617e	0.003408521
223	0xbb7495c6	-0.0037320717
224	0x3d474e9b	0.04865895
225	0x3d12a0c9	0.035797868
226	0x3d841a88	0.06450373
227	0xbcb25210	-0.021767646
228	0xbca6c727	-0.020358635
229	0x3d8dbcd3	0.06920781
230	0xbca91f65	-0.020644853
231	0xbd485ecc	-0.04891853
232	0xbd478606	-0.0487118
233	0x3da46199	0.08026428
234	0xbd49ea20	-0.049295545
235	0xbb8d1dff	-0.0043065543
236	0xbdb37b53	-0.087637566
237	0xbd122a17	-0.03568467
238	0x3d4540df	0.04815757
239	0x3d95cb4d	0.07314167
240	0x3a9067e5	0.0011017291
241	0xbc858278	-0.016297564
242	0xbd21332f	-0.039355453
243	0xbb1fab8b	-0.0024363722
244	0x3c9ead40	0.019369721
245	0xbdb0dcb1	-0.086358435
246	0xbbfbcf7a	-0.0076846452
247	0x3da453a5	0.080237664
248	0x3d9ac274	0.0755662
249	0x3d9ca562	0.07648732
250	0x3b636628	0.003469834
251	0x3daaf5cb	0.083476625
252	0x3d453400	0.048145294
253	0xbd1c4c1a	-0.038158514
254	0x3aaba06f	0.0013094078
255	0xbd7ddbeb	-0.06197731

layer1.bias f4 [32]
0	0xbd698383	-0.057010185
1	0xbdb12ee3	-0.08651521
2	0xbd321da0	-0.043485284
3	0xbd927905	-0.07151989
4	0x3d871b0e	0.06596957
5	0xbce86e8c	-0.028373025
6	0xbc81c062	-0.015838806
7	0xbdac95a9	-0.08426983
8	0xbd33e24e	-0.043916993
9	0x3d3c2305	0.045931835
10	0xbd9eee58	-0.07760304
11	0xbd19d466	-0.037556075
12	0xbc280cbb	-0.010256941
13	0xbc8ed7b8	-0.017436847
14	0x3d9d2ae4	0.07674196
15	0x3d8a72a1	0.06760145
16	0x3d6e020e	0.05810743
17	0x3c9768cf	0.018482594
18	0x3cc43c4a	0.02395453
19	0xbdaf3b72	-0.0855626
20	0xbd709445	-0.05873515
21	0x3d627eb9	0.055296633
22	0x3c77ce59	0.015124881
23	0x3b67e690	0.0035385229
24	0xbcea5e08	-0.02860929
25	0x3da43aa3	0.080189966
26	0x3d5ac1da	0.053407528
27	0x3d91c5b4	0.07117787
28	0xbcf75d03	-0.030195719
29	0x3d70e7be	0.058814757
30	0x3d9589c4	0.07301667
31	0x3b14980c	0.0022673635

layer2.weight f4 [8, 32]
0	0x3dd6ae4e	0.10482465
1	0x3e25b478	0.16182125
2	0x3dc3ff34	0.095701605
3	0xb9f19663	-0.0004607915
4	0xbe1439b7	-0.14475141
5	0xbe1fc797	-0.15603481
6	0x3da89d30	0.08233106
7	0x3d543386	0.05180695
8	0x3dbe4a4c	0.09291515
9	0x3e2551f3	0.16144542
10	0x3e0eec12	0.13957241
11	0x3dcfa66b	0.101391636
12	0x3de231ea	0.110446766
13	0x3d919db8	0.071101606
14	0x3bdfbfe4	0.006828295
15	0x3d678e7c	0.056532368
16	0x3c93e5d0	0.01805392
17	0xbd91ec7f	-0.07125186
18	0xbe15f4f0	-0.14644217
19	0xbcd8bf55	-0.026458422
20	0x3d7ee2d7	0.06222805
21	0xbdce97c1	-0.100875385
22	0x3dcdc55b	0.10047408
23	0x3dcd770b	0.10032471
24	0x3d3b750a	0.045765914
25	0xbc034967	-0.008013106
26	0xbe01dbdb	-0.12681524
27	0x3e0b922d	0.1362998
28	0x3e278c51	0.1636212
29	0x3df68b7d	0.12038324
30	0xbcad280a	-0.021137256
31	0x3e044d4b	0.1292011
32	0x3cf5d0e1	0.030006828
33	0xbd7b48c0	-0.061348677
34	0xbe0d79ce	-0.13815996
35	0x3c88d81a	0.016704608
36	0x3bbad94c	0.0057021733
37	0x3d220e4f	0.039564427
38	0xbe0717cd	-0.13192673
39	0x3d7e5d43	0.06210066
40	0xbe1f5bef	-0.15562414
41	0xbda81c93	-0.08208575
42	0x3df860d2	0.12127842
43	0x3c49f9ae	0.012327595
44	0x3d750a1d	0.059824098
45	0x3bf5d837	0.0075025815
46	0xbd1fe302	-0.03903485
47	0xbd9a954c	-0.07548007
48	0x3d247d12	0.04015834
49	0xbde76bb4	-0.112998396
50	0x3e2eff76	0.17089638
51	0x3cd1232a	0.025529463
52	0xbe1174f9	-0.14204778
53	0x3d8b6f6c	0.068083614
54	0xbe2de9db	-0.1698374
55	0xbe17c3d4	-0.14820796
56	0xbd8d343a	-0.06894727
57	0xbdc1e77e	-0.09467982
58	0xbd57da19	-0.05269823
59	0xbd17b5bb	-0.037038546
60	0xbdada913	-0.08479514
61	0x3d7ed24a	0.062212266
62	0xbe0f0e56	-0.13970312
63	0x3da07f1d	0.07836745
64	0xbc5e4a46	-0.013567513
65	0xbcff4904	-0.031162746
66	0xbe2cd4ae	-0.16878006
67	0xbdfe7f1e	-0.124265894
68	0x3db29022	0.087188974
69	0x3d1a8bed	0.0377311
70	0x3e21f92b	0.15817706
71	0x3e109d81	0.14122583
72	0xbdb79914	-0.08964744
73	0xbdee0e87	-0.116238646
74	0xbcd63b8e	-0.026151445
75	0x3c982070	0.018570155
76	0x3e1678a0	0.14694452
77	0x3de25180	0.11050701
78	0x3d9235bf	0.071391575
79	0x3e22b946	0.15890989
80	0x3da1968d	0.078900434
81	0x3d517e56	0.051145874
82	0xbe2864f5	-0.16444762
83	0x3c4705df	0.012147396
84	0x3e146dfd	0.14495082
85	0x3e134eac	0.1438548
86	0xbddb5280	-0.10709095
87	0x3d419f31	0.047270957
88	0x3e2b84ab	0.16749828
89	0x3e126c3e	0.14299104
90	0x3df2be06	0.1185265
91	0xbde828a8	-0.113358796
92	0x3e12fb4e	0.14353678
93	0xbe1e8ee2	-0.15484193
94	0x3df6f454	0.12058321
95	0x3e20f346	0.15717801
96	0xbe162f06	-0.14666376
97	0xbdaad751	-0.083418496
98	0xbd9e40aa	-0.077271774
99	0xbcdefc60	-0.027219951
100	0x3db1542b	0.08658632
101	0xbdbbe920	-0.091753244
102	0x3e16b7bf	0.14718531
103	0xbbb0c6a8	-0.0053947754
104	0x3d51c4f0	0.051213205
105	0xbdfcf68d	-0.12351713
106	0x3e29ec89	0.16594137
107	0xbd30d834	-0.043174937
108	0xbe06fdd4	-0.13182765
109	0xbd9a5d61	-0.07537342
110	0x3d8d2a95	0.068928875
111	0xbd14a2a7	-0.03628793
112	0xbd2b94b9	-0.04188988
113	0xbe29e0ff	-0.16589735
114	0xbe080152	-0.13281754
115	0xbe34eb68	-0.17667925
116	0xbdd4d724	-0.10392597
117	0xbb500ed1	-0.0031747113
118	0xbbb23fb9	-0.0054397252
119	0x3d0818e0	0.033226848
120	0x3c47d75a	0.01219734
121	0x3e215836	0.15756306
122	0x3ce7dd26	0.028303694
123	0xbd11cf15	-0.03559788
124	0xbe29d87e	-0.16586491
125	0xbe07452c	-0.1320998
126	0xbe0704ca	-0.1318542
127	0x3d0165b8	0.031591147
128	0x3d8619c5	0.06547884
129	0x3e00de00	0.12584686
130	0xbe001fb6	-0.12512097
131	0xbe30d9ba	-0.17270556
132	0xbe208be0	-0.15678358
133	0xbe166642	-0.14687446
134	0xbe26e750	-0.16299176
135	0x3a91031b	0.0011063548
136	0xbe0b0dac	-0.13579434
137	0x3d89ab8a	0.067221716
138	0x3e04c096	0.1296409
139	0x3d9c76ac	0.07639822
140	0xbdcbc1b0	-0.09949052
141	0x3d0e5ab7	0.03475448
142	0x3ddc43d8	0.10755128
143	0xbdb428aa	-0.087968186
144	0xbb27794c	-0.0025554476
145	0x3d131285	0.035906333
146	0x3daa0bbf	0.08303022
147	0x3dfec05e	0.12439035
148	0xbe00bea6	-0.12572727
149	0x3e0ce3f7	0.13758837
150	0x3da7a206	0.081852004
151	0x3d858328	0.06519157
152	0x3dca9d25	0.09893254
153	0xbae17378	-0.001720055
154	0x3e1a01a1	0.15039684
155	0xbd1bdd27	-0.038052704
156	0x3e0bf2d7	0.13666855
157	0xbde1cd34	-0.110254675
158	0x3dbdd10a	0.09268387
159	0xbe22bead	-0.1589305
160	0xbde0be4b	-0.109737955
161	0x3dafe459	0.08588476
162	0x3e15ef8c	0.14642161
163	0x3e259438	0.16169822
164	0x3dd071a8	0.10177928
165	0xbce9e19a	-0.028549958
166	0xbe0104d7	-0.12599503
167	0x3d105e5f	0.03524625
168	0x3da320b3	0.07965221
169	0xbc6d2b04	-0.014475588
170	0xbdd5475c	-0.10414001
171	0xbd8e65e5	-0.069530286
172	0xbc37a3fe	-0.011208532
173	0x3dcecad2	0.10097279
174	0xbe322099	-0.17395248
175	0x3dbd3c24	0.092399865
176	0x3cc09ae9	0.023511367
177	0xbcee99b2	-0.029126022
178	0x3d4a9e3d	0.049467314
179	0x3d3d65b7	0.04623958
180	0xbd66f51c	-0.0563861
181	0x3e1ab7d7	0.15109192
182	0xbda50be5	-0.08058909
183	0x3dd64270	0.10461891
184	0xbe1340db	-0.14380209
185	0xbbf46145	-0.0074578845
186	0x3d0ef2f7	0.034899678
187	0x3dcdf546	0.10056548
188	0xbda39f8f	-0.07989418
189	0xbb1d7992	-0.002402876
190	0xbe1b9dc7	-0.15196906
191	0x3c395080	0.011310697
192	0xbb486c60	-0.0030582175
193	0x3ca4fbb5	0.020139555
194	0xbe05b66e	-0.13057873
195	0xbdf8e46b	-0.12152942
196	0xbca85195	-0.020546714
197	0x3dc18d6a	0.09450801
198	0xbdacec14	-0.08443466
199	0xbc911b5e	-0.017713245
200	0x3dd58c26	0.10427122
201	0xbe16c4df	-0.14723538
202	0xbbe00ee9	-0.006837715
203	0x3da42de8	0.080165684
204	0x3e2f591e	0.1712384
205	0xbd7f51ae	-0.062333755
206	0xbe2c5a0a	-0.16831222
207	0x3df96acb	0.12178572
208	0xbe184e17	-0.14873539
209	0x3c91e446	0.017809045
210	0xbd6617b2	-0.05617494
211	0xbd1ee933	-0.038796615
212	0x3de2a09e	0.110657915
213	0xbdc41cc2	-0.095757976
214	0x3d9bc007	0.07604986
215	0xbda192b5	-0.0788931
216	0x3e090e2a	0.1338431
217	0xbe22327b	-0.1583957
218	0x3e2860ee	0.16443226
219	0x3cf7b6a9	0.030238466
220	0x3c208e9d	0.009799627
221	0x3e0142f5	0.12623198
222	0x3db00c7a	0.0859613
223	0xbe1098ec	-0.14120835
224	0x3d490c39	0.049083922
225	0x3e02f3f4	0.12788373
226	0xbba0f8f2	-0.004912489
227	0xbd765fab	-0.06014983
228	0xbe18f574	-0.14937383
229	0x3dcf252a	0.1011451
230	0x3d61c8fc	0.055123314
231	0xbe029d4a	-0.12755314
232	0x3d5f8977	0.054574456
233	0xbe2a0952	-0.16605118
234	0xbdb15715	-0.08659188
235	0x3d89c866	0.06727676
236	0x3df2fe31	0.118648894
237	0x3d8a05f0	0.06739414
238	0x3c530081	0.012878538
239	0xbe0b17b6	-0.13583264
240	0x3dc6019a	0.09668274
241	0x3e21bbf2	0.15794352
242	0x3e02203a	0.12707606
243	0xbd7386e3	-0.05945481
244	0xbc9c6660	-0.019091785
245	0x3bd6a709	0.006550674
246	0x3d95c289	0.07312495
247	0x3e1f8dab	0.15581386
248	0x3d7610d4	0.060074642
249	0xbde8642f	-0.113472335
250	0x3c1fc7d4	0.009752233
251	0xbbf8957d	-0.0075861798
252	0xbe0cc0c5	-0.1374541
253	0x3dba96e0	0.09110808
254	0x3d82807a	0.06372161
255	0x3d3dc7ce	0.046333127

layer2.bias f4 [8]
0	0x3e1d8030	0.15380931
1	0xbdf2a2ab	-0.11847433
2	0x3d653418	0.055957884
3	0x3de89645	0.11356787
4	0x3df9856b	0.121836506
5	0x3c6d7fb1	0.014495776
6	0x3da5786d	0.0807961
7	0x3e2f456c	0.17116326

Output.weight f4 [2, 8]
0	0xbe4599a8	-0.19296896
1	0xbea07157	-0.3133647
2	0xbe0630f8	-0.13104618
3	0xbdf635a4	-0.1202195
4	0x3ea91c3c	0.33029354
5	0x3e7c3ef5	0.24633391
6	0xba688cbc	-0.0008871069
7	0xbe85a9c2	-0.26106077
8	0x3d118394	0.035525873
9	0xbe6038eb	-0.21896712
10	0x3e36357b	0.17793839
11	0x3eb30854	0.3496729
12	0x3e805ce7	0.2507088
13	0x3ea0dce5	0.3141853
14	0x3e50bd92	0.20384815
15	0x3e41b0f8	0.18915164

Output.bias f4 [2]
0	0x3e511593	0.20418386
1	0xbe946a4e	-0.28987354
